app/src/main/assets/physical-activity-model.tflite (tflite, 480568 bytes, 8 tensors)

sequential_94/conv1d_188/BiasAdd/ReadVariableOp f4 [128]
-0.025253264 -0.23328075 -0.16338915 -0.01422436 -0.021079082 -0.14691594 -0.20117494 -0.121463954
0.16170964 -0.019116415 -0.06744989 -0.015006555 -0.11293153 -0.07832004 -0.09030679 0.08075282
-0.12614931 -0.0114785405 -0.015092473 -0.09153341 -0.027986353 -0.2351276 0.027921002 -0.06903113
-0.11666965 -0.029682564 -0.22090349 -0.15579443 -0.088133514 -0.123772226 0.05017797 0.057932973
-0.022063395 -0.06749177 -0.20467211 -0.25114918 -0.1260121 -0.0056678634 -0.17398986 -0.04319629
-0.09474978 0.060959432 -0.06255211 -0.027878447 0.07687171 -0.18333139 -0.095715225 0.0059543126
-0.19520344 -0.059541542 -0.060080394 -0.010830656 -0.044303134 -0.12771311 -0.1127023 0.049388513
-0.055285465 -0.16114765 -0.06741583 -0.23681384 -0.23687722 0.031591076 -0.010277441 -0.10749772
-0.15831617 -0.021106951 -0.023833314 -0.0491028 0.04997761 -0.056240957 -0.068389796 -0.14770463
-0.26177722 -0.16231614 -0.074102506 -0.20405176 -0.07843154 -0.12328735 -0.10460354 -0.042483095
-0.08601645 -0.08136056 -0.19553447 -0.008762342 -0.091565214 -0.1006485 0.02868435 -0.23949936
-0.039953336 -0.053225253 -0.2527424 -0.006523798 0.0022887334 -0.12788099 -0.16527061 -0.10429537
-0.06692609 -0.19439833 -0.0030038045 -0.12724483 -0.012226315 -0.054464106 0.019476207 -0.0605138
-0.15992138 -0.0791122 -0.04152061 -0.1651645 -0.2594996 -0.19559653 -0.04368299 -0.22616827
-0.19003145 -0.22249381 -0.15559296 -0.27235994 -0.061274797 -0.060518764 -0.014139097 -0.0026684483
-0.22500953 -0.1879618 -0.17897141 -0.302974 -0.15216209 -0.048737258 -0.060330786 -0.023611551
00000000: efdf cebc 26e1 6ebe 7c4f 27be 4a0d 69bc
00000010: 0aae acbc 2271 16be ce00 4ebe 18c2 f8bd
00000020: 3697 253e 079a 9cbc 2b23 8abd 0ede 75bc
00000030: a548 e7bd 4266 a0bd c4f2 b8bd bc61 a53d
00000040: 492d 01be 7d10 3cbc 6b46 77bc de75 bbbd
00000050: a343 e5bc 4ac5 70be 96ba e43c 3160 8dbd
00000060: 7ff0 eebd d928 f3bc 8634 62be 9388 1fbe
00000070: 587f b4bd 4b7c fdbd 6a87 4d3d 204b 6d3d
00000080: 4bbe b4bc 2039 8abd 9195 51be a096 80be
00000090: 5109 01be 7cb9 b9bb 662a 32be 98ee 30bd
000000a0: 2c0c c2bd 99b0 793d 521b 80bd 5761 e4bc
000000b0: ea6e 9d3d 39bb 3bbe 5806 c4bd 651c c33b
000000c0: 69e3 47be d5e1 73bd dc16 76bd 1073 31bc
000000d0: 3477 35bd 3ac7 02be 77d0 e6bd 9c4b 4a3d
000000e0: 0373 62bd e403 25be 5011 8abd 547f 72be
000000f0: f18f 72be a565 013d b662 28bc c427 dcbd
00000100: a21d 22be 7ce8 acbc 153e c3bc 0520 49bd
00000110: 53b5 4c3d eb5c 66bd f30f 8cbd e23f 17be
00000120: aa07 86be 3436 26be 0ec3 97bd f2f2 50be
00000130: b7a0 a0bd 147e fcbd 613a d6bd c102 2ebd
00000140: 6429 b0bd 5ea0 a6bd 303a 48be ed8f 0fbc
00000150: 8b86 bbbd cd20 cebd 71fb ea3c 523f 75be
00000160: 1ca6 23bd b902 5abd 7467 81be 96c5 d5bb
00000170: 93fe 153b 3cf3 02be b33c 29be d098 d5bd
00000180: 8c10 89bd 5b10 47be 7adb 44bb 784c 02be
00000190: e250 48bc c115 5fbd 918c 9f3c 51dd 77bd
000001a0: 6ec2 23be 9405 a2bd 8411 2abd e220 29be
000001b0: 22dd 84be 754a 48be efec 32bd a898 67be
000001c0: 9b97 42be 6bd5 63be c353 1fbe c372 8bbe
000001d0: 48fb 7abd 86e2 77bd aca7 67bc 22e1 2ebb
000001e0: e668 66be 0f79 40be 4844 37be 681f 9bbe
000001f0: 61d0 1bbe b8a0 47bd 6a1d 77bd 036d c1bc

sequential_94/conv1d_189/BiasAdd/ReadVariableOp f4 [64]
0.06699093 -0.047240734 -0.02161256 -0.108015895 0.038094766 -0.024171457 -0.056570828 -0.10748367
-0.012919909 0.0040947115 0.07118687 -0.06903423 0.0979512 -0.04406912 0.16167387 -0.095891155
0.032452818 -0.018204562 -0.1018299 0.03240649 -0.029676203 -0.06819832 -0.064691044 -0.047321305
0.0041535986 -0.010897449 0.0050868094 -0.04962753 0.101374544 0.039506637 -0.11014816 0.018592427
-0.06443925 -0.020928778 -0.1391461 -0.017143302 0.107416436 0.0019670113 0.08412027 -0.10821202
0.17406777 0.015148367 -0.07327835 -0.17292747 -0.06237476 -0.011051602 0.09090803 -0.111691564
-0.22582297 -0.08331832 -0.110015295 -0.063916996 -0.053479858 0.18030082 0.061047945 -0.12731227
-0.086866446 0.09891101 -0.18645057 -0.020489104 -0.14602305 -0.011599342 -0.082098626 -0.01957381
00000000: 8a32 893d 807f 41bd d30c b1bc 7037 ddbd
00000010: 4209 1c3d 3803 c6bc d0b6 67bd 6620 dcbd
00000020: 07ae 53bc ee2c 863b 6cca 913d d261 8dbd
00000030: a49a c83d d281 34bd d68d 253e 9562 c4bd
00000040: 3fed 043d bc21 95bc 328c d0bd abbc 043d
00000050: 821b f3bc 90ab 8bbd bd7c 84bd fcd3 41bd
00000060: e91a 883b 378b 32bc 40af a63b 3d46 4bbd
00000070: 759d cf3d b6d1 213d 5c95 e1bd 254f 983c
00000080: baf8 83bd d472 abbc 517c 0ebe 1c70 8cbc
00000090: 26fd db3d f9e8 003b 4047 ac3d 439e ddbd
000000a0: d23e 323e db30 783c f612 96bd e613 31be
000000b0: ad7c 7fbd c711 35bc fd2d ba3d 8cbe e4bd
000000c0: 233e 67be cca2 aabd b34f e1bd eae6 82bd
000000d0: b20d 5bbd c7a0 383e 690d 7a3d 265e 02be
000000e0: 09e7 b1bd db91 ca3d e6ec 3ebe c4d8 a7bc
000000f0: 1187 15be 2b0b 3ebc 5323 a8bd 4159 a0bc

sequential_94/conv1d_188/Conv1D f4 [128, 1, 3, 6]
-0.20105654 0.22550312 -0.35789517 0.17241631 -0.13592124 -0.09478296 -0.15771933 0.17506018
-0.1631681 0.25062406 -0.27192152 -0.06440279 -0.14057526 0.24395742 -0.32457417 0.28848305
-0.12400684 -0.10849631 -0.025749756 -0.2593345 0.11914364 -0.045313947 0.10600121 -0.012171385
0.07227949 -0.025274867 -0.05294674 -0.25489286 0.09783989 -0.21774308 -0.13412139 0.20628127
-0.13617688 -0.042507697 -0.048240397 -0.22824681 -0.16538367 0.15657634 0.15627746 -0.22887926
0.13264993 -0.068028286 0.14938012 -0.042289194 0.24301456 -0.12943497 0.047576927 -0.028693035
-0.020333517 0.045580298 0.16194044 -0.15317503 0.06540396 0.17246777 -0.15157606 0.048248824
0.04725762 0.32025707 -0.28519544 -0.19106641 -0.019157182 -0.12597173 -0.011270984 0.19990788
0.02294578 -0.037247773 -0.10994234 -0.22658423 -0.010098616 -0.2379872 0.15200436 -0.20893244
-0.5629223 0.04207884 0.043079138 0.089172 -0.005698174 -0.309667 0.016240206 0.102380365
-0.09112572 -0.10453699 -0.09073696 0.03879193 0.53570074 -0.10447224 0.038949326 0.04978907
0.10167668 0.2495077 -0.21650392 0.0125691425 0.20473385 0.08706163 -0.013926541 0.15252909
-0.110053055 -0.06715964 0.090816975 0.0661381 0.042463776 0.14579631 -0.25088757 -0.24110821
-0.0034975414 0.037242558 0.16889338 0.11899419 -0.24965586 0.12906082 -0.5372002 0.21143134
0.020647079 0.07271268 0.16902983 -0.23608328 0.14080122 -0.17990787 -0.24309398 0.035247963
-0.027876535 -0.13512199 0.22440287 -0.04786501 0.22302845 -0.18312429 -0.14087786 -0.27093953
0.16496505 0.08694841 0.014391414 -0.056170348 -0.020983534 -0.23807292 0.057191897 0.11575769
0.2300424 0.021181619 0.08771322 -0.04673137 -0.06806407 0.14976093 0.010425826 0.1257544
0.07051331 -0.122060016 0.0954988 0.24769786 0.08770363 0.23007968 0.118438855 0.03184529
0.06973447 0.19191854 0.106264874 0.13673307 0.09510419 0.019914806 0.11700966 0.1682038
0.14345482 0.025727756 0.09935891 0.07098484 0.07795835 -0.13344054 -0.17997555 0.23041892
0.0058666077 0.05052799 0.019300113 0.054627582 -0.16781503 0.21284223 0.15317488 0.0678568
0.037357986 -0.17151804 0.054551173 -0.25089085 -0.22711489 0.06580062 -0.0043972074 -0.17441785
0.09415445 0.031052973 -0.21736923 0.10185191 0.09838688 0.007159323 0.100894235 0.21744868
-0.21828777 -0.054544404 0.1072227 0.11979159 0.1294834 0.03115092 0.049545854 0.09912997
-0.09340956 0.18765897 0.10732848 0.273936 0.02414012 0.116574645 -0.06066771 0.32509074
0.03790539 0.32797214 -0.018254919 0.07297922 0.034142718 0.42320552 -0.09123179 0.25733557
0.25396603 0.054798666 0.1941791 0.18087626 0.041099913 -0.27474117 0.11124371 0.09134037
0.12525165 0.20667896 0.012780081 -0.29435608 0.3208059 -0.14219396 0.22909403 -0.06680204
-0.03168698 -0.24752142 0.15920289 0.14512113 0.16764855 -0.09518028 -0.14449847 -0.14724128
-0.14360453 -0.03608825 0.0737188 0.02658044 0.08229368 0.12972341 -0.07929817 -0.012919977
0.03462222 0.07802351 0.28431657 0.24694552 -0.0022640368 0.15183142 -0.07325692 0.10117376
00000000: c4e1 4dbe 4aea 663e 093e b7be e78d 303e
00000010: f02e 0bbe 921d c2bd 2d81 21be fa42 333e
00000020: 8a15 27be cc51 803e 4c39 8bbe 9ce5 83bd
00000030: f6f2 0fbe f9cf 793e 962e a6be 0db4 933e
00000040: 4cf7 fdbd 5033 debd 27f1 d2bc 7ec7 84be
00000050: 9501 f43d 1e9b 39bd 2a17 d93d 7d6a 47bc
00000060: 4507 943d 3d0d cfbc aede 58bd 5181 82be
00000070: 4860 c83d 0bf8 5ebe 1e57 09be 663b 533e
00000080: f471 0bbe 8d1c 2ebd b997 45bd 88b9 69be
00000090: 565a 29be 8c55 203e 3307 203e 535f 6abe
000000a0: 62d5 073e 6a52 8bbd 1af7 183e 6f37 2dbd
000000b0: cfd8 783e 9a8a 04be 06e0 423d a80d ebbc
000000c0: 7a92 a6bc 68b2 3a3d b7d3 253e ead9 1cbe
000000d0: 83f2 853d 649b 303e c136 1bbe 8fa0 453d
000000e0: 3591 413d bcf8 a33e 2305 92be eaa6 43be
000000f0: 86ef 9cbc bcfe 00be efa9 38bc a7b4 4c3e
00000100: caf8 bb3c 1f91 18bd 7329 e1bd b205 68be
00000110: aa74 25bc ebb2 73be 08a7 1b3e 63f2 55be
00000120: ad1b 10bf dd5a 2c3d c073 303d cf9f b63d
00000130: bfb7 babb ac8c 9ebe 2e0a 853c ccac d13d
00000140: 1fa0 babd 7d17 d6bd 4dd4 b9bd 49e4 1e3d
00000150: af23 093f 8bf5 d5bd 5489 1f3d a0ef 4b3d
00000160: dd3b d03d f27e 7f3e 34b3 5dbe ceee 4d3c
00000170: c0a5 513e 5e4d b23d 262c 64bc 9630 1c3e
00000180: 7f63 e1bd fe8a 89bd 40fe b93d 6a73 873d
00000190: 7fee 2d3d a14b 153e 5674 80be 12e5 76be
000001a0: 0237 65bb a78b 183d 63f2 2c3e 3ab3 f33d
000001b0: c9a5 7fbe 8528 043e f485 09bf 7581 583e
000001c0: 1024 a93c 63ea 943d 2816 2d3e d1bf 71be
000001d0: 322e 103e c539 38be a1ed 78be 2b60 103d
000001e0: 555d e4bc 6b5d 0abe dec9 653e 1a0e 44bd
000001f0: 9261 643e ef84 3bbe 4942 10be 96b8 8abe
00000200: 99ec 283e 0212 b23d f7c9 6b3c e112 66bd
00000210: a9e5 abbc 63c9 73be 0d42 6a3d 5e12 ed3d
00000220: 3c90 6b3e 1385 ad3c fda2 b33d 6569 3fbd
00000230: 2d65 8bbd ee5a 193e 15d1 2a3c c3c5 003e
00000240: 4869 903d 9afa f9bd e094 c33d 82a4 7d3e
00000250: f69d b33d 029a 6b3e 1290 f23d 3570 023d
00000260: f2d0 8e3d 4b86 443e 66a1 d93d c103 0c3e
00000270: fcc5 c23d 6024 a33c c3a2 ef3d 9e3d 2c3e
00000280: d2e5 123e 04c3 d23c af7c cb3d 8060 913d
00000290: a1a8 9f3d a3a4 08be 834b 38be f0f2 6b3e
000002a0: ac3c c03b 70f6 4e3d 451b 9e3c 2cc1 5f3d
000002b0: b4d7 2bbe 50f3 593e e0d9 1c3e 82f8 8a3d
000002c0: b004 193d 6da2 2fbe 0d71 5f3d c474 80be
000002d0: ce90 68be 7ac2 863d 7316 90bb 989a 32be
000002e0: 0cd4 c03d ce62 fe3c 0a96 5ebe bc97 d03d
000002f0: 0f7f c93d c198 ea3b a3a1 ce3d deaa 5e3e
00000300: d486 5fbe f469 5fbd 9397 db3d 4b55 f53d
00000310: 4c97 043e 3730 ff3c 98f0 4a3d a704 cb3d
00000320: 834d bfbd ac29 403e 09cf db3d 5741 8c3e
00000330: 80c1 c53c b0be ee3d b47e 78bd 4b72 a63e
00000340: af42 1b3d f7eb a73e 578b 95bc 2176 953d
00000350: 3cd9 0b3d 65ae d83e bcd7 babd 7dc1 833e
00000360: d607 823e 9174 603d e3d6 463e a037 393e
00000370: 6258 283d e0aa 8cbe bed3 e33d a910 bb3d
00000380: f841 003e a6a3 533e 8b63 513c d7b5 96be
00000390: ac40 a43e 4b9b 11be a097 6a3e 82cf 88bd
000003a0: 35ca 01bd 4176 7dbe 1506 233e a29a 143e
000003b0: 10ac 2b3e e1ed c2bd 68f7 13be 6bc6 16be
000003c0: 110d 13be 46d1 13bd e2f9 963d 39bf d93c
000003d0: 9789 a83d 37d6 043e 1467 a2bd 50ae 53bc
000003e0: 07d0 0d3d caca 9f3d f191 913e 49df 7c3e
000003f0: 3c60 14bb b279 1b3e b907 96bd 3034 cf3d

sequential_94/conv1d_189/Conv1D f4 [64, 1, 3, 128]
0.10542968 -0.39975291 -0.18620987 -0.17944296 -0.14028518 0.10465584 -0.12555434 0.00913779
-0.28978944 -0.11280172 -0.029005755 -0.30270374 0.10806004 -0.09187474 0.12707862 -0.13692553
0.044782076 -0.28505266 -0.48210806 -0.08896194 -0.40313098 -0.10317292 -0.17141114 0.08609501
0.0062603 -0.054873735 0.1091028 0.05968534 -0.22432277 -0.10334784 0.06198473 -0.80241644
0.044255782 0.073089875 -0.11663364 -0.150091 -0.037513416 0.03084395 -0.24237394 0.026788706
-0.2832655 -0.033140212 0.002803744 0.002988203 -0.13295084 0.090467334 0.03143591 -0.20261557
0.1540388 -0.25691745 0.09559509 -0.40319452 -0.124499984 0.18396823 -0.010121656 -0.74592507
-0.14099291 0.18466488 0.05084117 -0.10179767 0.07831018 -0.13211983 0.018249212 -0.57592857
-0.034971263 -0.15012495 -0.23017344 0.008106838 -0.019075204 -0.0009282055 -0.13663477 -0.0992481
0.13241445 0.06877512 0.15685253 -0.20639393 0.069649704 0.10993729 -0.28404522 -0.06042143
0.14492136 0.1288954 -0.100440755 0.03612697 -0.21699852 0.13508165 -0.3225346 -0.07989997
-0.2991432 -0.004175973 0.17052214 0.26374057 -0.0059432285 0.04363567 -0.086696215 -0.13353154
0.032304272 -0.15983531 -0.084882125 0.01817811 -0.16244842 -0.0065906537 0.16859874 -0.28024766
-0.31267396 -0.070896335 -0.19832785 0.005858795 -0.23765989 0.165737 -0.06650993 0.09446824
-0.12560049 -0.14850783 -0.20227562 -0.057230093 0.1699165 -0.008799971 -0.44287503 -0.23115902
-0.2190183 -0.22008543 0.0741311 -0.055071276 -0.1387579 0.11485866 -0.10036468 -0.17627417
0.17591904 -0.09750664 0.08008441 -0.18413986 -0.049261976 0.15118459 -0.12610888 0.03618195
-0.21908058 0.0594051 0.04400459 -0.39936945 0.10340266 -0.17033577 -0.016771022 -0.0852052
-0.08087727 0.019087743 -0.34094408 0.10117686 -0.14917468 -0.016476667 -0.24593717 0.0064124153
-0.16860011 0.15868752 0.17066625 -0.031822555 -0.12241318 -0.095444866 -0.038474295 -0.76789546
0.03532408 0.09558591 -0.03202332 0.091614775 0.06124063 0.017274335 0.04106371 0.0075809048
-0.09053868 -0.08279286 0.032323953 0.1360141 -0.11614638 0.095791526 0.06532276 -0.08732711
0.022240752 -0.34165496 0.0018793298 -0.06932843 -0.11146116 0.07086759 0.0952009 -0.5720329
-0.44671223 -0.1453148 -0.078909 0.032740258 -0.069019265 0.08026084 0.10918103 0.009603345
0.10399966 -0.10283178 -0.036915492 0.103998125 0.004555396 0.18315937 0.020448515 -0.035993353
0.057458688 0.057628352 0.08984548 0.07308486 0.11426438 -0.13003156 -0.15422091 -0.023513978
-0.0526124 -0.118745916 0.39451894 -0.1785574 -0.30207554 0.17026755 -0.49955758 -0.031062605
0.021696642 0.1322709 0.106361836 0.029516596 0.15709725 0.09252947 0.13541329 0.013107764
0.017559279 0.07324695 0.03396546 0.005700984 -0.0150488755 -0.12497184 0.12081284 -0.104850195
-0.05330028 -0.10612144 -0.06768137 -0.027402125 -0.31804454 0.22258699 -0.06444537 0.102668986
-0.07318688 -0.0399882 -0.017419366 -0.091162175 -0.045220498 0.03547252 -0.2405749 0.037108187
-0.279888 -0.15385807 0.088033594 -0.029532049 -0.16571292 0.16282402 -0.084133014 -0.2561318
00000000: 84eb d73d 6aac ccbe cdad 3ebe e5bf 37be
00000010: eba6 0fbe cd55 d63d 5191 00be abb6 153c
00000020: 485f 94be 9704 e7bd 7a9d edbc fcfb 9abe
00000030: 954e dd3d d328 bcbd e620 023e 3536 0cbe
00000040: 696d 373d 6cf2 91be ded6 f6be ad31 b6bd
00000050: 2f67 cebe 534c d3bd 6786 2fbe 9552 b03d
00000060: 3423 cd3b 48c3 60bd 4a71 df3d 9d78 743d
00000070: deb4 65be 08a8 d3bd b3e3 7d3d 2a6b 4dbf
00000080: 8d45 353d 25b0 953d 9edd eebd 75b1 19be
00000090: aba7 19bd 74ac fc3c e030 78be fd73 db3c
000000a0: 2d08 91be 08be 07bd 05bf 373b bad5 433b
000000b0: 4424 08be f046 b93d f1c2 003d 757a 4fbe
000000c0: 59bc 1d3e af8a 83be 5cc7 c33d 836f cebe
000000d0: d9f9 febd 2b62 3c3e 4dd5 25bc f2f4 3ebf
000000e0: 7260 10be ca18 3d3e d53e 503d 4c7b d0bd
000000f0: 1661 a03d 6c4a 07be 5f7f 953c 0e70 13bf
00000100: 073e 0fbd 5bba 19be 96b2 6bbe 8bd2 043c
00000110: 9a43 9cbc d152 73ba fce9 0bbe 9642 cbbd
00000120: a797 073e f8d9 8c3d f39d 203e ee58 53be
00000130: 81a4 8e3d cd26 e13d 606e 91be 767c 77bd
00000140: 4466 143e 28fd 033e e2b3 cdbd e0f9 133d
00000150: dc34 5ebe d852 0a3e 4123 a5be 98a2 a3bd
00000160: 4c29 99be 9ad6 88bb 5b9d 2e3e 0109 873e
00000170: 6abf c2bb 51bb 323d c98d b1bd 7ebc 08be
00000180: 7c51 043d deab 23be aed6 adbd 42ea 943c
00000190: e158 26be 69f6 d7bb 26a5 2c3e 9f7c 8fbe
000001a0: cd16 a0be 1932 91bd 7516 4bbe 22fb bf3b
000001b0: 1d5d 73be f6b6 293e 5c36 88bd 9178 c13d
000001c0: 6a9d 00be 7012 18be 5721 4fbe 1a6a 6abd
000001d0: 97fe 2d3e c12d 10bc 84c0 e2be f3b4 6cbe
000001e0: 5546 60be 135e 61be 0cd2 973d 6b92 61bd
000001f0: 8d16 0ebe 043b eb3d ff8b cdbd 3781 34be
00000200: 1f24 343e 90b1 c7bd 4c03 a43d 298f 3cbe
00000210: edc6 49bd 22d0 1a3e b022 01be 8633 143d
00000220: a956 60be c352 733d 283e 343d 277a ccbe
00000230: c6c4 d33d 806c 2ebe 6263 89bc 1080 aebd
00000240: fba2 a5bd e65d 9c3c 3990 aebe d035 cf3d
00000250: 3fc1 18be 13fa 86bc f4d6 7bbe 3d1f d23b
00000260: 82a5 2cbe fb7e 223e 22c3 2e3e 5e58 02bd
00000270: c3b3 fabd 9978 c3bd 3997 1dbd cc94 44bf
00000280: fcaf 103d 8cc2 c33d e32a 03bd 87a0 bb3d
00000290: 74d7 7a3d e882 8d3c 6c32 283d 3d69 f83b
000002a0: 586c b9bd 4e8f a9bd 1f66 043d 4847 0b3e
000002b0: 27de edbd 592e c43d f0c7 853d 8ed8 b2bd
000002c0: 3d32 b63c 66ed aebe d853 f63a 10fc 8dbd
000002d0: c045 e4bd 0723 913d b1f8 c23d c070 12bf
000002e0: 77b7 e4be 67cd 14be 0b9b a1bd a61a 063d
000002f0: f959 8dbd cc5f a43d 4e9a df3d 5957 1d3c
00000300: c6fd d43d 7899 d2bd b334 17bd f8fc d43d
00000310: 6e45 953b 218e 3b3e a583 a73c c46d 13bd
00000320: cd59 6b3d b50b 6c3d e800 b83d 84ad 953d
00000330: 7103 ea3d fe26 05be 16ec 1dbe 63a0 c0bc
00000340: 1a80 57bd 0f31 f3bd 63fe c93e c0d7 36be
00000350: a5a9 9abe 9e5a 2e3e 03c6 ffbe 0177 febc
00000360: 28bd b13c 0672 073e 3cd4 d93d cacc f13c
00000370: 1ade 203e 1780 bd3d c8a9 0a3e f2c1 563c
00000380: 7ad8 8f3c 7f02 963d 5e1f 0b3d 52cf ba3b
00000390: 8f8f 76bc 3cf1 ffbd b96c f73d b3bb d6bd
000003a0: 6551 5abd 3356 d9bd 889c 8abd 6c7a e0bc
000003b0: bcd6 a2be d8ed 633e effb 83bd 1e44 d23d
000003c0: 01e3 95bd abca 23bd 0fb3 8ebc 3cb3 babd
000003d0: 2139 39bd a24b 113d 4459 76be c1fe 173d
000003e0: 7b4d 8fbe f88c 1dbe f54a b43d 32ed f1bc
000003f0: a6b0 29be 57bb 263e ee4d acbd b523 83be

sequential_94/dense_189/BiasAdd/ReadVariableOp f4 [11]
0.30789167 0.33838648 -0.047950465 -0.12064226 -0.3785134 -0.22508396 -0.026994068 0.15749864
-0.39222044 -0.0707336 -0.10724091
00000000: faa3 9d3e fe40 ad3e b567 44bd 4a13 f7bd
00000010: 82cc c1be 697c 66be aa22 ddbc 5347 213e
00000020: 1ed1 c8be c7dc 90bd 1fa1 dbbd

sequential_94/dense_188/BiasAdd/ReadVariableOp f4 [128]
-0.006130817 -0.07762203 0.033478234 -0.08148165 -0.08867393 0.065115035 0.080253676 -0.02113478
-0.0233558 0.110820286 -0.021260753 0.04851542 -0.08479369 -0.009401723 -0.037623502 -0.0639846
0.0037187268 -0.030026494 -0.116409175 -0.06717851 -0.19484155 -0.042902227 -0.084418274 0.038928483
0.0515837 -0.12860736 -0.053638183 0.16279647 -0.0884643 -0.110756196 0.0044016233 -0.015003873
-0.07493191 -0.11116456 0.07537491 0.06638649 -0.044330966 0.12878962 0.016709566 -0.1306761
0.035076637 0.06964125 -0.036681402 0.017611168 0.12120411 0.009495441 0.1148472 0.050054602
0.07531166 0.01576522 0.035427168 0.077937916 -0.045589026 -0.29523474 -0.030259615 -0.066918075
0.12932172 -0.26657665 -0.024012921 -0.04365026 -0.056826483 -0.02208995 0.04167864 -0.16239168
0.09558262 0.09912521 0.07637694 -0.05510896 -0.006132721 -0.07246773 0.1405779 -0.06317123
-0.04927447 0.05127843 0.08535487 -0.0021478934 -0.20881926 -0.062492464 0.015767677 0.06306365
-0.05967221 -0.014141331 0.017292436 0.0016492114 -0.11279207 0.03482099 0.066915244 0.07131802
-0.048730012 0.063368894 -0.05858612 -0.018468842 -0.25974315 -0.029511105 -0.01598641 -0.036604214
-0.0065309647 -0.07381842 -0.028058052 0.018232504 0.057494663 0.017814094 -0.0113431625 -0.0027578704
0.012890066 -0.023885394 0.09953953 -0.06607991 0.021962466 0.093398124 -0.12096383 0.17390665
0.022363566 0.011860122 0.13866392 -0.17139494 -0.059556566 -0.13631298 0.013988289 0.030402383
-0.15873669 0.102032006 0.038624357 -0.16860756 0.10930223 0.09761971 -0.04423057 0.0032463716
00000000: 05e5 c8bb 4df8 9ebd 7920 093d dadf a6bd
00000010: ad9a b5bd 085b 853d 0a5c a43d d922 adbc
00000020: aa54 bfbc bff5 e23d 082b aebc 1bb8 463d
00000030: 50a8 adbd af09 1abc 1a1b 1abd 5c0a 83bd
00000040: e2b5 733b 1ffa f5bc ef67 eebd e394 89bd
00000050: 8b84 47be 3fba 2fbd 7de3 acbd 7973 1f3d
00000060: 6e49 533d a6b1 03be b6b3 5bbd 1eb4 263e
00000070: c52c b5bd 25d4 e2bd 7e3b 903b ced2 75bc
00000080: e775 99bd 3faa e3bd 295e 9a3d a4f5 873d
00000090: 6394 35bd 6de1 033e 80e2 883c f5cf 05be
000000a0: 85ac 0f3d 12a0 8e3d 3d3f 16bd 4c45 903c
000000b0: dc39 f83d c492 1b3c 0235 eb3d 0e06 4d3d
000000c0: 003d 9a3d 1026 813c 141c 113d ea9d 9f3d
000000d0: 8fbb 3abd 0229 97be 03e3 f7bc 580c 89bd
000000e0: ea6c 043e bc7c 88be bfb6 c4bc 9dca 32bd
000000f0: e3c2 68bd fcf5 b4bc 39b7 2a3d 014a 26be
00000100: d2c0 c33d 2802 cb3d 836b 9c3d efb9 61bd
00000110: fef4 c8bb f669 94bd a7f3 0f3e eb5f 81bd
00000120: 07d4 49bd 5509 523d 89ce ae3d acc3 0cbb
00000130: b7d4 55be 19f8 7fbd 372b 813c 8427 813d
00000140: d96a 74bd 0bb1 67bc dea8 8d3c 5a2a d83a
00000150: 87ff e6bd 74a0 0e3d dc0a 893d 2f0f 923d
00000160: 1f99 47bd 8dc7 813d 00f8 6fbd f84b 97bc
00000170: 0efd 84be 46c1 f1bc eff5 82bc 4dee 15bd
00000180: b401 d6bb 1d2e 97bd 00da e5bc 555c 953c
00000190: 867f 6b3d ddee 913c acd8 39bc 63bd 34bb
000001a0: db30 533c 4dab c3bc 62db cb3d e754 87bd
000001b0: a1ea b33c 8447 bf3d e2bb f7bd 9614 323e
000001c0: cc33 b73c f550 423c eafd 0d3e 2882 2fbe
000001d0: 96f1 73bd a195 0bbe 232f 653c 6b0e f93c
000001e0: df8b 22be 28f6 d03d 9334 1e3d 76a7 2cbe
000001f0: d9d9 df3d d8ec c73d 1d2b 35bd 14c1 543b

sequential_94/dense_188/MatMul f4 [128, 704]
0.2075411 -0.21053074 0.0132951485 0.0038991994 0.0026285553 -0.08835168 0.2064346 -0.030686235
0.12614909 -0.060785197 -0.11706199 -0.006932359 0.11761482 -0.15639964 -0.08532922 -0.1852712
0.19434409 -0.053705685 -0.06490973 -0.030553674 0.11584096 0.06410678 -0.13118118 0.2480974
-0.059883773 0.07797311 -0.025886683 0.052133884 0.05095782 0.08571501 -0.026709244 -0.07931863
0.16256212 -0.10689545 -0.06671042 0.16375647 0.066363625 0.0954448 0.12627764 -0.14229116
-0.26581076 -0.04526721 -0.05823004 -0.13345005 0.0721183 -0.18260288 -0.03908421 0.15578891
0.13364233 0.14541072 -0.0076912874 0.027016597 0.038089287 -0.13362047 0.021468798 0.10608555
-0.018474184 0.0042662383 0.039024685 0.09446453 0.10498998 -0.17553413 0.11309976 -0.042609528
0.14787298 -0.06750504 0.026739448 -0.15193589 0.1309451 -0.007001691 0.15475361 -0.12015878
-0.0011895227 0.017357836 0.045908365 0.08532007 0.0061976397 -0.080701806 -0.09479475 0.031225566
0.025752623 0.012099854 -0.03875364 0.048559148 -0.06535777 0.094021045 0.057018623 0.03120012
-0.0015194316 0.12362561 0.090260535 0.15803671 0.12727351 0.1202452 0.15593645 -0.18809061
0.05671454 -0.087843455 -0.022969598 0.027522549 0.113449015 -0.0067029055 0.026336925 -0.008555499
-0.048320483 -0.1347116 0.081497796 -0.057686307 -0.060498387 -0.021468189 -0.007074517 0.16441219
0.030193975 0.047192335 0.07456147 -0.024596963 -0.012086997 -0.042560447 -0.09407014 0.06295356
-0.06002497 0.029717483 0.1425604 -0.003095182 -0.023158526 -0.069504716 0.1629397 0.0972402
0.007992488 -0.15884545 -0.08943667 0.01817179 0.1600702 0.055141706 -0.0021207326 0.07561748
0.050247416 0.13552906 -0.0077475943 0.102267735 -0.064556845 -0.15345654 0.013346589 0.028890546
0.030960325 0.07827188 -0.11478712 0.11261228 -0.050408192 -0.026182422 -0.043470796 -0.009912677
0.009963113 0.13652505 0.091824174 0.04216298 0.052595686 0.026281247 0.026042193 -0.21666181
0.028024955 -0.10601717 0.015060672 0.11302782 0.012448045 0.0014883926 -0.030403404 -0.038589094
0.0034870068 -0.01693443 0.07662244 -0.036150068 -0.060826432 -0.13936618 0.07547631 0.3313515
0.13804518 0.121474385 -0.05852139 -0.024359528 0.08349301 0.008863958 -0.029730208 0.09544125
-0.039650086 -0.024466274 0.014550162 0.05821843 -0.010433397 -0.13694854 0.047259897 0.15002246
0.04925335 -0.042001653 -0.08147882 -0.10867224 0.049214184 0.012027247 0.16223802 0.07950804
0.15647905 0.19127645 0.00014071428 0.17301202 0.020543385 0.044637892 0.034002498 -0.10612823
0.0031040239 0.08004779 -0.12618557 0.12459366 0.03587306 -0.12145253 -0.0010109597 0.108477615
0.09519242 -0.048846457 -0.016365072 0.10551338 0.021556133 0.11416112 0.013120158 -0.28202003
0.06732466 -0.059439793 -0.054091334 0.17706321 0.05183969 0.008894469 0.006087283 -0.01703118
-0.14752479 -0.1357494 0.10181993 -0.03111961 0.09100931 -0.077590495 0.1368851 0.13256411
0.0017474904 -0.0798359 -0.17023525 0.041015007 0.04521709 -0.057800546 -0.0043843156 0.048425924
0.053437248 0.016763533 0.08114242 0.055718116 0.013710948 -0.08641571 0.23125482 -0.09013647
00000000: a785 543e 5f95 57be e5d3 593c b689 7f3b
00000010: d743 2c3b baf1 b4bd 9763 533e b361 fbbc
00000020: 3a2d 013e e6f9 78bd 32be efbd d828 e3bb
00000030: 0ae0 f03d 3a27 20be 16c1 aebd bcb7 3dbe
00000040: 2302 473e 7efa 5bbd 64ef 84bd b34b fabc
00000050: 063e ed3d 6a4a 833d 5c54 06be 3f0d 7e3e
00000060: b048 75bd 5eb0 9f3d 4f10 d4bc 578a 553d
00000070: 26b9 503d 5a8b af3d 58cd dabc ce71 a2bd
00000080: af76 263e 00ec dabd 799f 88bd c7af 273e
00000090: a7e9 873d 9078 c33d ed4e 013e c6b4 11be
000000a0: 5918 88be 1c6a 39bd 9f82 6ebd 21a7 08be
000000b0: c2b2 933d 40fc 3abe c416 20bd 2187 1f3e
000000c0: 89d9 083e 8ce6 143e 3207 fcbb e951 dd3c
000000d0: 8303 1c3d ced3 08be 55df af3c 6143 d93d
000000e0: 2c57 97bc cdcb 8b3b 59d8 1f3d 9f76 c13d
000000f0: fd04 d73d 38bf 33be d9a0 e73d 5487 2ebd
00000100: 046c 173e 1540 8abd b00c db3c 1595 1bbe
00000110: 7916 063e 716e e5bb bb77 1e3e ce15 f6bd
00000120: c2e9 9bba 0532 8e3c 690a 3c3d 4abc ae3d
00000130: 9215 cb3b fd46 a5bd c023 c2bd c2cc ff3c
00000140: 2af7 d23c 773e 463c 23bc 1ebd f5e5 463d
00000150: 4bda 85bd 1b8e c03d 5c8c 693d 6597 ff3c
00000160: aa27 c7ba 6c2f fd3d 84da b83d 60d4 213e
00000170: fd53 023e 1e43 f63d cead 1f3e d39a 40be
00000180: 814d 683d 45e7 b3bd bd2a bcbc f876 e13c
00000190: f557 e83d 0ca4 dbbb 89c0 d73c 5d2c 0cbc
000001a0: b3eb 45bd d6f1 09be 51e8 a63d 7a48 6cbd
000001b0: 28cd 77bd 0ede afbc 5ad1 e7bb ab5b 283e
000001c0: 5b59 f73c c04c 413d afb3 983d 927f c9bc
000001d0: 8a08 46bc dd53 2ebd d8a7 c0bd cced 803d
000001e0: bedc 75bd 1472 f33c 5afb 113e 89d8 4abb
000001f0: f3b6 bdbc 7d58 8ebd aad9 263e df25 c73d
00000200: edf2 023c 62a8 22be 932a b7bd 01dd 943c
00000210: 71e9 233e 45dc 613d fdfb 0abb 56dd 9a3d
00000220: 3cd0 4d3d 21c8 0a3e 88df fdbb bf71 d13d
00000230: 6136 84bd b623 1dbe a7ab 5a3c deab ec3c
00000240: 82a0 fd3c 024d a03d 8215 ebbd 44a1 e63d
00000250: d278 4ebd 857c d6bc 6f0e 32bd c868 22bc
00000260: 533c 233c 39cd 0b3e 500e bc3d 17b3 2c3d
00000270: 936e 573d c54b d73c 7056 d53c 98dc 5dbe
00000280: 9794 e53c 881f d9bd 09c1 763c 217b e73d
00000290: e3f2 4b3c 2b16 c33a 8f10 f9bc 990f 1ebd
000002a0: 4486 643b 13ba 8abc 3aec 9c3d 1812 14bd
000002b0: 2325 79bd 02b6 0ebe 5393 9a3d e7a6 a93e
000002c0: b75b 0d3e 90c7 f83d 20b4 6fbd a28d c7bc
000002d0: 62fe aa3d 223a 113c c48c f3bc b476 c33d
000002e0: 2168 22bd 7f6d c8bc cd63 6e3c 7376 6e3d
000002f0: d7f0 2abc 3d3c 0cbe 9893 413d 7d9f 193e
00000300: e1bd 493d ed09 2cbd 5ede a6bd 8d8f debd
00000310: d094 493d ee0d 453c b921 263e 1cd5 a23d
00000320: 0b3c 203e f9dd 433e b48c 1339 102a 313e
00000330: 9a4a a83c 39d6 363d 3446 0b3d c259 d9bd
00000340: e16c 4b3b 19f0 a33d ca36 01be f62a ff3d
00000350: a1ef 123d 1bbc f8bd 2e82 84ba 8329 de3d
00000360: 3ef4 c23d 3913 48bd 0b10 86bc 6617 d83d
00000370: 7d96 b03c 4ecd e93d eef5 563c ee64 90be
00000380: 83e1 893d 2477 73bd e08e 5dbd 0f50 353e
00000390: db55 543d 1bba 113c d577 c73b f984 8bbc
000003a0: bd10 17be e401 0bbe f886 d03d 8dee febc
000003b0: 1763 ba3d c4e7 9ebd 9c2b 0c3e e3be 073e
000003c0: 0c0c e53a 0181 a3bd 2652 2ebe 5aff 273d
000003d0: 8e35 393d 44c0 6cbd 4eaa 8fbb 435a 463d
000003e0: 04e1 5a3d ad53 893c ff2d a63d ae38 643d
000003f0: e2a3 603c b8fa b0bd 10ce 6c3e 7899 b8bd

sequential_94/dense_189/MatMul f4 [11, 128]
0.0530597 0.5129449 -1.0316262 -0.9935995 -0.5552591 0.04633399 0.14392209 -0.017331718
-1.1517589 -0.914654 0.31603044 -0.46182126 0.23942122 -0.051993202 -0.91418475 -0.00080067257
-0.57781774 -0.0038826684 0.2004109 -0.08629111 -0.7988621 -0.7751475 -0.76257735 -1.1414337
-0.4634326 -0.49312732 -0.55241394 -1.269166 0.041513406 -0.7261853 0.114010505 -0.62807035
0.37922487 0.23972967 0.029517958 -1.0331366 -0.62262565 -0.61680216 -0.69585043 0.14060394
-0.45382372 -0.6689287 -0.6166775 0.31465366 -0.9599865 -0.56227577 -0.6792992 -0.07359105
-0.71953464 0.12275224 -0.97102016 -0.6647794 -0.42146048 -0.8978005 -0.30780914 0.2270654
-0.95913446 -0.79288286 0.16747348 0.37719953 -1.0747269 -0.13150746 -0.43236625 -0.40728036
0.20374553 0.13755263 0.16466121 -0.0067544496 -0.82227063 -0.20127754 -1.1584076 0.107470155
0.42363667 0.19134682 -0.18374547 0.11707328 -0.7927458 0.27327073 -0.75535405 -0.51725084
0.34565642 0.45036498 0.097779445 0.123347975 0.23783517 0.11032642 -0.6720205 -0.7838183
-0.79133654 0.10755002 -0.22858971 -0.18844645 -1.10989 0.0942681 -0.19467826 0.27711636
-0.27920878 0.22445625 0.091838986 0.10613105 0.226597 -0.15744172 0.22337659 -0.5589128
0.23596686 0.02118228 -0.8440439 0.21648797 0.111238755 -1.4745281 0.28773028 -0.71581495
-0.10144056 0.4885199 -0.6724277 -0.48470986 0.22768432 -0.68733376 -0.20065859 -0.2609544
-0.42288673 -0.6435698 0.19368169 0.077326305 -1.0991833 -0.77700156 0.26831973 -0.09362733
0.03654229 -0.59881765 -0.8106816 0.093610354 -0.67412454 -0.7891185 0.11097067 0.105663426
0.19217761 -0.79096085 -0.4290429 0.14627488 -0.5092205 0.13292162 0.014607728 -0.7358199
-0.74465305 0.063420735 0.110714175 -0.91988206 0.08271146 0.42755944 -0.5416988 -0.7079019
-0.5546086 -0.12542288 0.28716043 -0.34375522 -0.22876786 -0.08869946 0.17094581 -0.04162751
0.47607273 -0.61374426 -1.0317929 0.10783307 -0.4152463 -0.52156246 -0.8335475 -0.3720995
-1.1115643 -0.28050187 -0.58016044 0.11994963 -0.8121125 -0.8058372 -0.11459447 -0.7199007
-0.25600472 0.14116976 -0.4863878 -1.0833653 -0.4868804 -0.4614915 -0.65428275 -0.5021486
-0.6050379 -0.74158627 0.14523435 0.44291794 0.2920622 0.19931595 0.049815387 0.32078323
0.1388384 0.11173413 0.17051537 0.43445268 0.54485697 0.16553597 0.11261963 0.062248964
-0.6744755 0.034042686 -0.5794965 0.22152372 -0.214328 0.2945891 -0.06714257 0.24771637
-0.7087819 -0.693337 0.08939974 0.12321519 -0.35887554 -0.012905216 0.2692296 -0.8862481
0.1342202 -0.01782226 -0.9718609 -0.14024077 0.026687548 -0.034653086 -0.67500985 0.45828494
-0.97326654 0.23834188 0.10717188 0.04702334 -0.29462108 0.26731837 0.25449777 0.17149259
-0.8142521 -0.027158072 -0.23303175 -0.7301318 0.10838468 -0.84629494 -0.7966161 0.017040629
-0.14292623 -0.8772883 0.23027873 0.0151292095 -0.4519663 -0.0733098 -0.49235427 -0.66228676
-0.20874844 -0.4763956 -1.0892569 0.059215467 -0.47280133 -0.49736834 -0.34232515 0.31566024
00000000: 2155 593d 5b50 033f 540c 84bf 895c 7ebf
00000010: 7625 0ebf b6c8 3d3d 5060 133e 3ffb 8dbc
00000020: d66c 93bf c426 6abf bece a13e d673 ecbe
00000030: d62a 753e d3f6 54bd 0308 6abf 3ae4 51ba
00000040: ddeb 13bf 5e74 7ebb 8438 4d3e 65b9 b0bd
00000050: 3a82 4cbf 1170 46bf 4538 43bf 801a 92bf
00000060: 0a47 edbe 2f7b fcbe 006b 0dbf 0874 a2bf
00000070: f609 2a3d 48e7 39bf 577e e93d 38c9 20bf
00000080: c329 c23e b27b 753e a5cf f13c d23d 84bf
00000090: 6564 1fbf bfe6 1dbf 4123 32bf 7bfa 0f3e
000000a0: 955b e8be e93e 2bbf 94de 1dbf 491a a13e
000000b0: adc1 75bf 4ef1 0fbf 8de6 2dbf e8b6 96bd
000000c0: 6c33 38bf 8765 fb3d c794 78bf fc2e 2abf
000000d0: abc9 d7be 41d6 65bf 2999 9dbe d583 683e
000000e0: d689 75bf 5ffa 4abf 2b7e 2b3e 4c20 c13e
000000f0: a790 89bf e4a9 06be 1c5f ddbe 0d87 d0be
00000100: aba2 503e 99da 0c3e f39c 283e 6e54 ddbb
00000110: 5480 52bf b31b 4ebe b346 94bf 5019 dc3d
00000120: e8e6 d83e 6cf0 433e c627 3cbe 1ec4 ef3d
00000130: 64f1 4abf 24ea 8b3e e25e 41bf 8d6a 04bf
00000140: e1f9 b03e 3d96 e63e 9740 c83d dd9d fc3d
00000150: 108b 733e d1f2 e13d 8909 2cbf 51a8 48bf
00000160: 0895 4abf 2f43 dc3d 6c13 6abe 1bf8 40be
00000170: e010 8ebf a20f c13d bd59 47be 32e2 8d3e
00000180: 74f4 8ebe dcd7 653e 1416 bc3d 3c5b d93d
00000190: 0b09 683e 6738 21be d5bc 643e e914 0fbf
000001a0: 4ca1 713e 7686 ad3c 4313 58bf 06af 5d3e
000001b0: 25d1 e33d 56bd bcbf 6251 933e a63f 37bf
000001c0: 11c0 cfbd 481f fa3e 3924 2cbf e42b f8be
000001d0: 1426 693e 1bf5 2fbf 7279 4dbe d19b 85be
000001e0: 9c84 d8be fec0 24bf 7e54 463e 415d 9e3d
000001f0: 0ab2 8cbf 93e9 46bf 3461 893e b0bf bfbd
00000200: 5ead 153d 1d4c 19bf d488 4fbf c9b6 bf3d
00000210: 6d93 2cbf ac03 4abf 9744 e33d 1166 d83d
00000220: 35ca 443e 697c 4abf 83ab dbbe 15c9 153e
00000230: 465c 02bf 9b1c 083e 4155 6f3c b15e 3cbf
00000240: 95a1 3ebf bbe2 813d 1dbe e23d 647d 6bbf
00000250: a064 a93d 12e9 da3e c6ac 0abf 0f39 35bf
00000260: d4fa 0dbf db6e 00be b106 933e af00 b0be
00000270: 1f42 6abe 10a8 b5bd 6b0c 2f3e 9c81 2abd
00000280: cebf f33e 581e 1dbf ca11 84bf 96d7 dc3d
00000290: 2a9b d4be 1e85 05bf 5e63 55bf d383 bebe
000002a0: bd47 8ebf f19d 8fbe 6585 14bf 27a8 f53d
000002b0: 9be6 4fbf 594b 4ebf 81b0 eabd 6a4b 38bf
000002c0: 0d13 83be ce8e 103e d207 f9be b7ab 8abf
000002d0: 6348 f9be 9d48 ecbe 137f 27bf d08c 00bf
000002e0: c4e3 1abf 99d8 3dbf 50b8 143e 24c6 e23e
000002f0: 2d89 953e 7b19 4c3e 380b 4c3d b33d a43e
00000300: a72b 0e3e ddd4 e43d 959b 2e3e 9570 de3e
00000310: bf7b 0b3f 4382 293e 1fa5 e63d c5f8 7e3d
00000320: 6daa 2cbf 5870 0b3d e259 14bf 1dd7 623e
00000330: cd78 5bbe 62d4 963e 0b82 89bd 5ca9 7d3e
00000340: bb72 35bf 897e 31bf 3617 b73d 3f58 fc3d
00000350: 89be b7be 6670 53bc 76d8 893e 28e1 62bf
00000360: 0571 093e fdff 91bc e0cb 78bf 479b 0fbe
00000370: d89f da3c 65f0 0dbd 72cd 2cbf 53a4 ea3e
00000380: ff27 79bf e50f 743e ee7c db3d 8c9b 403d
00000390: 93d8 96be f4dd 883e 884d 823e c19b 2f3e
000003a0: d372 50bf 9b7a debc e09f 6ebe ebe9 3abf
000003b0: c9f8 dd3d c9a6 58bf 08ef 4bbf ca98 8b3c
000003c0: 415b 12be f795 60bf 30ce 6b3e 81e0 773c
000003d0: 2068 e7be 7323 96bd dc15 fcbe a08b 29bf
000003e0: 27c2 55be 20ea f3be c56c 8bbf eb8b 723d
000003f0: 0413 f2be 10a7 febe 3e45 afbe 389e a13e
