app/src/main/assets/respiratory-model.tflite (tflite, 931364 bytes, 8 tensors)

sequential_45/conv1d_90/BiasAdd/ReadVariableOp f4 [128]
-0.026073707 -0.15195946 -0.057059567 -0.026757836 -0.04800415 -0.016160667 -0.039850883 -0.009977857
-0.160565 -0.08223547 -0.013560032 -0.14734748 -0.032250054 -0.12378839 -0.0015219593 -0.07805353
-0.19975346 -0.025787415 -0.027954753 -0.050368737 -0.058217034 0.011189971 -0.20275399 -0.04588258
-0.07181515 -0.10302155 -0.10802607 -0.074552774 -0.15307608 -0.069759965 0.016880723 -0.07728095
-0.113961875 -0.1096395 -0.015754187 -0.007699445 -0.07628285 -0.09178931 -0.09939344 -0.014275129
-0.005391516 -0.0041370783 -0.096530706 -0.08989291 -0.004546651 -0.16436377 -0.034048155 -0.09783284
-0.007118151 -0.10063905 -0.08863721 0.039526775 -0.1268614 -0.0035758824 -0.14117678 -0.013304125
-0.08831463 -0.12223899 -0.16396071 -0.15679015 -0.025639454 -0.106156886 -0.121968366 -0.087228075
-0.123346806 -0.037228048 -0.0311626 0.010728 -0.013639543 -0.0891793 -0.12659697 -0.06352682
-0.04134918 -0.025485847 -0.14991914 -0.17619245 -0.10364932 -0.0070990836 -0.071286626 -0.026475405
0.013596063 -0.082041666 -0.11862152 -0.08729673 -0.009283489 -0.050025363 -0.043643877 -0.10984607
-0.0030582878 -0.14491268 0.006110805 0.0007719575 -0.07276076 -0.10259277 -0.02721861 -0.13108055
-0.113355614 -0.14105874 0.010905807 -0.13593242 -0.13882351 -0.0027529276 -0.07894904 0.007856861
-0.12687387 -0.0093119815 -0.1659292 -0.17142493 -0.1503152 -0.16192241 -0.06332606 -0.13734621
-0.05611343 0.007328014 -0.032469504 -0.14208534 -0.009220176 -0.04493207 -0.0641586 -0.09913555
-0.102150425 -0.09163006 -0.1639511 -0.094281 -0.053425178 -0.08513657 -0.09072289 -0.0007570366
00000000: 8798 d5bc 439b 1bbe 4bb7 69bd 4033 dbbc
00000010: 00a0 44bd 6063 84bc ae3a 23bd 2a7a 23bc
00000020: 276b 24be 126b a8bd e52a 5ebc 42e2 16be
00000030: a218 04bd c484 fdbd 7b7c c7ba 87da 9fbd
00000040: 2c8c 4cbe 2140 d3bc 5e01 e5bc 734f 4ebd
00000050: fc74 6ebd 2456 373c be9e 4fbe 5fef 3bbd
00000060: d213 93bd f6fc d2bd c63c ddbd 20af 98bd
00000070: fabf 1cbe 50de 8ebd 7149 8a3c 7a45 9ebd
00000080: d864 e9bd ad8a e0bd ed0e 81bc a04b fcbb
00000090: 2f3a 9cbd 09fc bbbd ca8e cbbd 3be2 69bc
000000a0: 50ab b0bb 5490 87bb e4b1 c5bd c619 b8bd
000000b0: 13fc 94bb fa4e 28be 1476 0bbd 965c c8bd
000000c0: 613f e9bb d91b cebd 6d87 b5bd d4e6 213d
000000d0: f4e7 01be 5a59 6abb a590 10be 8bf9 59bc
000000e0: 4dde b4bd 7058 fabd 51e5 27be 998d 20be
000000f0: d509 d2bc c868 d9bd 8dca f9bd a2a4 b2bd
00000100: 409d fcbd 707c 18bd b548 ffbc 7ec4 2f3c
00000110: 6478 5fbc a3a3 b6bd a3a2 01be 591a 82bd
00000120: c25d 29bd b2c7 d0bc 6784 19be cb6b 34be
00000130: 1846 d4bd 6e9f e8bb b9fe 91bd f3e2 d8bc
00000140: 05c2 5e3c 7605 a8bd d7ef f2bd a1c8 b2bd
00000150: c619 18bc 65e7 4cbd ecc3 32bd faf6 e0bd
00000160: 8e6d 48bb fd63 14be 263d c83b 315d 4a3a
00000170: 9803 95bd 281c d2bd 90f9 debc fb39 06be
00000180: fd26 e8bd b471 10be 45ae 323c de31 0bbe
00000190: c027 0ebe 766a 34bb 09b0 a1bd 10ba 003c
000001a0: 39eb 01be 4891 18bc 58e9 29be 048a 2fbe
000001b0: 3aec 19be fdce 25be 18b1 81bd 7ca4 0cbe
000001c0: 32d7 65bd d61f f03b befe 04bd d27e 11be
000001d0: 3910 17bc b10a 38bd 9665 83bd 9407 cbbd
000001e0: 3e34 d1bd 8aa8 bbbd cce2 27be 6616 c1bd
000001f0: 5cd4 5abd 155c aebd eccc b9bd de73 46ba

sequential_45/conv1d_91/BiasAdd/ReadVariableOp f4 [128]
-0.031383164 0.017043648 0.05304827 0.034232374 0.038896963 -0.022924418 -0.052776746 -0.017024236
0.020979572 -0.08172769 -0.046393476 0.022040354 -0.026438482 -0.03573839 -0.019858021 -0.04041753
-0.08103124 -0.037437946 -0.035971437 -0.029520659 -0.03423679 -0.034028504 -0.07329081 -0.05780973
-0.054235242 0.018936034 -0.044119574 0.0032106738 0.023920985 0.10887711 -0.045606904 -0.01761061
-0.026770389 -0.07089312 -0.026841471 -0.018437855 0.051556807 0.024767991 -0.046593912 -0.06246434
-0.05842822 -0.03689789 -0.015239809 -0.02681562 0.017863562 -0.1530487 0.013370462 -0.029799983
-0.014470332 0.047441542 -0.04053114 -0.028028743 -0.0039718766 0.06382257 -0.06989039 -0.0065725013
-0.064457394 -0.013627685 -0.14620638 0.037622236 0.03935666 -0.036721237 -0.036368903 -0.010278403
-0.005062846 -0.023310963 -0.025520073 -0.033519585 0.049132846 -0.10622447 -0.028868362 -0.096329294
-0.029100211 -0.046740346 -0.018586244 -0.0025796576 -0.015614675 -0.061196506 -0.04178952 -0.031701338
-0.03440657 0.0017718936 -0.03470445 -0.023732172 -0.034971893 -0.011012439 -0.033403758 -0.016372804
-0.03816826 -0.05199803 -0.058045287 -0.072662696 -0.026679303 -0.02009357 -0.03380075 -0.045362107
-0.06423086 -0.07361402 -0.054232873 0.006275295 -0.029548366 -0.045399062 0.0054903054 -0.02663214
-0.101983145 -0.02959668 -0.04770486 -0.007065246 0.004559445 -0.026118914 -0.019721221 -0.07838179
-0.013357088 -0.016752392 -0.020327328 -0.01774515 -0.026653683 -0.021865886 -0.022811642 -0.024740502
-0.045263544 0.0018820856 -0.02897897 -0.04632537 -0.016095268 -0.02340573 -0.07522128 -0.038836557
00000000: a28b 00bd 1f9f 8b3c 2549 593d 3f37 0c3d
00000010: 6c52 1f3d fdcb bbbc 6e2c 58bd 6976 8bbc
00000020: 5add ab3c d960 a7bd 1607 3ebd f98d b43c
00000030: 8495 d8bc 6b62 12bd 4aad a2bc da8c 25bd
00000040: b5f3 a5bd 8858 19bd c956 13bd 4fd5 f1bc
00000050: e03b 0cbd 7961 0bbd 7e19 96bd e5c9 6cbd
00000060: c625 5ebd be1f 9b3c bab6 34bd 2b6a 523b
00000070: f1f5 c33c f6fa de3d 4ece 3abd 2044 90bc
00000080: 934d dbbc 6930 91bd a5e2 dbbc fc0a 97bc
00000090: 3b2d 533d 3ee6 ca3c 42d9 3ebd 9cda 7fbd
000000a0: 6e52 6fbd 3e22 17bd 64b0 79bc 6eac dbbc
000000b0: 9b56 923c ccb8 1cbe c80f 5b3c 181f f4bc
000000c0: f914 6dbc 1052 423d fb03 26bd 899c e5bc
000000d0: 8426 82bb 68b5 823d b122 8fbd 235e d7bb
000000e0: 3d02 84bd a746 5fbc 20b7 15be c619 1a3d
000000f0: 7334 213d 0269 16bd 8ff7 14bd bf66 28bc
00000100: 3be6 a5bb a2f6 bebc 790f d1bc d54b 09bd
00000110: 863f 493d 378c d9bd 587d ecbc 4b48 c5bd
00000120: 9163 eebc ce72 3fbd 2e42 98bc 790f 29bb
00000130: b2d4 7fbc 30a9 7abd 7d2b 2bbd 43d9 01bd
00000140: e7ed 0cbd e23e e83a 4126 0ebd f969 c2bc
00000150: b03e 0fbd 846d 34bc 61d2 08bd 4220 86bc
00000160: 5256 1cbd e3fb 54bd e5c0 6dbd 2ed0 94bd
00000170: 8e8e dabc 459b a4bc a872 0abd 9ecd 39bd
00000180: 788b 83bd f3c2 96bd 4a23 5ebd fda0 cd3b
00000190: 6a0f f2bc 5ef4 39bd 05e8 b33b a52b dabc
000001a0: 8adc d0bd bd74 f2bc 2c66 43bd 9483 e7bb
000001b0: 6667 953b 55f7 d5bc 668e a1bc a286 a0bd
000001c0: b0d7 5abc 503c 89bc 7f85 a6bc 475e 91bc
000001d0: d358 dabc 1620 b3bc 7bdf babc 98ac cabc
000001e0: 4466 39bd 50b0 f63a 4e65 edbc acbf 3dbd
000001f0: 39da 83bc 60bd bfbc 9d0d 9abd 1513 1fbd

sequential_45/conv1d_90/Conv1D f4 [128, 1, 3, 3]
-0.022526171 0.4809824 -0.049640186 0.07259951 0.43168122 -0.08232095 -0.023157807 0.39440247
0.00021500172 -0.038841613 0.02321281 0.060983494 -0.04633233 -0.14385308 -0.18300833 0.075747184
-0.02121133 -0.013557051 0.013628086 0.2217317 0.106965415 0.04000799 0.17488052 0.15160443
-0.062121883 0.12320827 0.0898007 -0.035577506 0.006183906 0.15664952 0.06968541 -0.0807868
-0.23737758 -0.04331914 0.07078021 0.09089222 0.055075847 0.01640987 -0.08458856 -0.10525899
-0.059469108 0.06018203 -0.12972493 -0.033760503 0.01582069 0.1353937 0.118209906 -0.06450998
0.13705657 0.23529513 -0.15339805 0.1132525 0.29501316 -0.12659895 0.06408187 -0.22076172
0.07822904 0.11296193 0.011605023 -0.041271728 -0.16319269 0.2490499 0.026038587 0.050448876
0.10762609 -0.035437834 0.10813662 0.32907847 -0.120869465 0.09274957 0.29369363 -0.059415236
-0.022969149 0.051019996 -0.006398053 0.0781152 -0.06578705 -0.060551375 -0.0726407 -0.17640597
-0.14702483 0.13722917 0.24830283 -0.11686856 0.09655305 0.3742683 0.08813674 0.11421244
0.3537762 0.013991191 0.0798472 -0.0022588428 -0.16833553 0.10980129 -0.06237292 0.2647535
-0.19544537 0.06670167 -0.1068035 -0.015575847 -0.14789234 0.108207144 0.040086225 -0.116774306
0.047658578 0.054634616 0.20150207 0.08147981 -0.06066852 -0.13915177 -0.08105242 -0.10163005
0.053452715 0.05309642 0.016575025 0.004395694 -0.11102343 -0.021862505 0.21977654 -0.001195498
-0.10020808 0.212018 -0.07865085 0.06821827 0.021943193 -0.070333265 0.06796113 0.05191215
0.2723513 0.03180415 -0.09433344 -0.06380651 -0.09929467 0.052335557 -0.21137573 -0.08725128
-0.0692266 0.15125887 -0.057780426 -0.12572744 0.09120871 -0.11056567 -0.109704904 0.01825991
-0.12922853 -0.05459369 0.060308993 -0.08585384 0.00015501547 0.039525505 -0.05290816 0.08787635
-0.056244757 -0.14431158 -0.034490764 0.057590198 0.24668814 0.046976417 -0.2895236 -0.12317704
-0.047527496 0.24593252 -0.11727608 -0.023769679 -0.09746046 -0.133861 -0.06239198 -0.074952014
-0.14128844 0.015268961 -0.10907702 0.10668028 0.06162902 0.121402055 -0.1154348 -0.057054453
0.07114746 -0.15214583 -0.17338581 -0.022022702 0.066662975 0.06459976 -0.113191314 0.16131967
0.224519 -0.1304877 -0.002551901 0.23038237 0.037568066 0.008463304 0.19851737 -0.052477058
-0.11528647 0.112313814 -0.08259673 -0.021666529 0.25545323 -0.097202174 0.106523044 -0.041996766
-0.11022808 0.08840385 -0.036505066 -0.10797286 0.14418149 -0.19894233 -0.0348048 -0.021146566
0.20350252 -0.1601437 0.08925706 0.116898485 -0.12095595 0.092586815 -0.055774294 0.10985223
0.056958802 0.35182425 0.04076059 0.04901848 0.24412239 0.05950358 0.110250175 0.27509895
0.09782444 -0.10087601 -0.15886179 0.10900117 -0.002127485 0.09806731 -0.07206402 0.07727578
0.028691255 -0.10905439 -0.01755069 -0.057961 -0.01985883 0.010687183 0.04166239 -0.008748367
0.0034673233 -0.016427847 -0.045793746 0.16933668 -0.07068919 0.032629568 0.17192625 -0.12380357
-0.0030873138 -0.071300104 0.06761677 -0.13735075 -0.08045472 0.16545382 0.14555389 0.051845238
00000000: ce88 b8bc 5343 f63e 8253 4bbd 0daf 943d
00000010: 5205 dd3e e397 a8bd 71b5 bdbc 1fef c93e
00000020: 1672 6139 6218 1fbd ca28 be3c d4c9 793d
00000030: f8c6 3dbd 394e 13be 8966 3bbe 5721 9b3d
00000040: 62c3 adbc 651e 5ebc 5648 5f3c a20d 633e
00000050: af10 db3d 6bdf 233d e113 333e 313e 1b3e
00000060: 8473 7ebd 9e54 fc3d 6ee9 b73d b8b9 11bd
00000070: 5da2 ca3b bb68 203e 39b7 8e3d 8d73 a5bd
00000080: 1c13 73be 696f 31bd 37f5 903d b325 ba3d
00000090: 3697 613d fe6d 863c c43c adbd 0692 d7bd
000000a0: e195 73bd 6f81 763d 9dd6 04be 7448 0abd
000000b0: 649a 813c a5a4 0a3e 0918 f23d cf1d 84bd
000000c0: 8f58 0c3e 35f1 703e 6114 1dbe edf0 e73d
000000d0: f70b 973e 28a3 01be 5b3d 833d 5c0f 62be
000000e0: 8c36 a03d 9658 e73d ff22 3e3c 8b0c 29bd
000000f0: fc1b 27be f006 7f3e e04e d53c 7ba3 4e3d
00000100: 116b dc3d 4327 11bd bb76 dd3d f97c a83e
00000110: 698a f7bd 7df3 bd3d 035f 963e 645d 73bd
00000120: cc29 bcbc 58fa 503d c2a6 d1bb ddfa 9f3d
00000130: 5cbb 86bd b804 78bd a6c4 94bd c4a3 34be
00000140: ad8d 16be ce85 0c3e 1943 7e3e c958 efbd
00000150: 9bbd c53d 18a0 bf3e 0981 b43d 36e8 e93d
00000160: 2722 b53e 4f3b 653c ee86 a33d 1809 14bb
00000170: 2660 2cbe 80df e03d bf7a 7fbd c58d 873e
00000180: d522 48be e39a 883d cbbb dabd d631 7fbc
00000190: 1771 17be b59b dd3d 7431 243d 5e27 efbd
000001a0: a435 433d 8cc8 5f3d 8f56 4e3e e3de a63d
000001b0: 8e7f 78bd cd7d 0ebe d0fe a5bd 6a23 d0bd
000001c0: 3cf1 5a3d a27b 593d 59c8 873c c109 903b
000001d0: 4160 e3bd ff18 b3bc 1a0d 613e 42b2 9cba
000001e0: e539 cdbd 3f1b 593e b213 a1bd 05b6 8b3d
000001f0: 36c2 b33c e30a 90bd 342f 8b3d d6a1 543d
00000200: a171 8b3e 1245 023d e431 c1bd fdac 82bd
00000210: 015b cbbd cf5d 563d e172 58be cdb0 b2bd
00000220: adc6 8dbd 9be3 1a3e 2bab 6cbd b2be 00be
00000230: a2cb ba3d 4170 e2bd f7ac e0bd cf95 953c
00000240: 7c54 04be a29d 5fbd 9006 773d 23d4 afbd
00000250: a68b 2239 7fe5 213d 3ab6 58bd 84f8 b33d
00000260: e760 66bd 6ac6 13be 3046 0dbd b3e3 6b3d
00000270: d19b 7c3e 586a 403d 703c 94be 3e44 fcbd
00000280: 31ac 42bd bcd5 7b3e 712e f0bd a1b8 c2bc
00000290: 5a99 c7bd dc12 09be bc8e 7fbd 7180 99bd
000002a0: ebad 10be aa2a 7a3c c663 dfbd 317b da3d
000002b0: b66e 7c3d a4a1 f83d 1569 ecbd eeb1 69bd
000002c0: c2b5 913d 1ecc 1bbe 0d8c 31be f468 b4bc
000002d0: 9986 883d e14c 843d d9d0 e7bd fc30 253e
000002e0: 4fe8 653e 919e 05be cb3d 27bb 5be9 6b3e
000002f0: f9e0 193d aba9 0a3c 2348 4b3e 2ff2 56bd
00000300: 501b ecbd c904 e63d 7928 a9bd 017e b1bc
00000310: c4ca 823e ef11 c7bd c128 da3d cd04 2cbd
00000320: 42bf e1bd 140d b53d 5686 15bd e020 ddbd
00000330: 50a4 133e 8ab7 4bbe 7a8f 0ebd 903b adbc
00000340: f762 503e b6fc 23be 68cc b63d 7968 ef3d
00000350: c1b7 f7bd 289e bd3d 9673 64bd 35fa e03d
00000360: a24d 693d 4f22 b43e 94f4 263d 9ac7 483d
00000370: 38fb 793e 07ba 733d d8ca e13d c5d9 8c3e
00000380: 2e58 c83d 1598 cebd aaac 22be 013c df3d
00000390: 466d 0bbb 84d7 c83d 4d96 93bd c442 9e3d
000003a0: ec09 eb3c e857 dfbd 77c6 8fbc 8368 6dbd
000003b0: fcae a2bc 4b19 2f3c 2fa6 2a3d 5055 0fbc
000003c0: 083c 633b b193 86bc 3992 3bbd 9866 2d3e
000003d0: 7ec5 90bd 95a6 053d 6f0d 303e ba8c fdbd
000003e0: 8854 4abb ca05 92bd a97a 8a3d ada5 0cbe
000003f0: 72c5 a4bd ba6c 293e 140c 153e ac5b 543d

sequential_45/conv1d_91/Conv1D f4 [128, 1, 3, 128]
-0.1408309 -0.0057382663 0.033442777 0.045138583 -0.21708712 -0.11935007 -0.004451406 -0.034714498
-0.05740953 0.18910658 -0.04395251 -0.09700217 -0.2395016 0.032442335 0.012080408 -0.053568374
-0.058961052 0.060421888 -0.4205332 -0.032950055 -0.12099858 -0.06612027 0.09922283 -0.0770676
0.052637618 -0.04169122 -0.018638553 0.068380184 -0.060624693 0.02486909 -0.7246239 -0.050524294
-0.042207975 0.19458514 -0.18677384 -0.015011217 -0.012171969 -0.0629664 -0.33292258 -0.18359517
0.011273152 -0.36042485 -0.2793036 -0.08779456 -0.15968192 -0.34128284 0.11393111 -0.04969423
-0.32085982 0.13859269 -0.19940245 0.039839122 -0.59934115 0.09055686 0.049101084 -0.07412809
-0.12341492 -0.0475125 -0.022068528 -0.08444736 -0.036345493 -0.078171395 0.06075876 0.06986347
-0.08192267 0.040321484 -0.24777217 0.05894 0.10641195 0.033674356 -0.1359798 0.11663168
0.09165248 0.006976475 -0.16206796 0.09834402 0.03339413 0.1487724 0.077763796 -0.3217345
-0.14785142 -0.025781153 0.038900334 0.05469456 -0.10654736 0.049476475 -0.10948435 -0.08939565
-0.016530652 -0.07544758 0.036254026 0.00701507 0.13099562 -0.0054655564 -0.044664472 -0.013292786
0.03144109 -0.08990828 0.055161186 -0.03550163 0.030013768 -0.23275165 -0.3938655 0.007070801
0.007622003 0.053847093 0.05036086 -0.01986689 -0.060964253 -0.101893306 0.020790806 -0.12577173
-0.12829371 0.17517464 -0.29675314 -0.030170355 0.027913075 0.0844519 -0.027246397 0.026254378
-0.2527495 -0.0702882 -0.008556505 0.10233247 0.08131317 -0.053119626 0.120205104 -0.17045014
-0.21044336 -0.027273979 0.009585498 0.043857116 -0.46678513 -0.013861779 -0.012093384 -0.10952088
0.10302436 0.07715493 0.005931351 -0.026214076 -0.24851057 -0.032150593 0.4021135 0.043456033
-0.09397001 -0.12711793 -0.45488778 0.021579606 -0.024248729 -0.007671147 0.09268044 -0.14234579
0.080902465 -0.08073324 0.07452311 0.10011161 0.02958184 -0.05222847 -0.6845581 -0.08521923
0.02437045 0.15050872 -0.055601563 -0.01012389 0.07609612 0.0552076 -0.2096241 -0.22584942
-0.23857233 -0.28442276 -0.2654186 -0.019734079 0.104867674 -0.18401645 0.13387829 -0.1366156
-0.30031255 0.09264196 -0.24130552 -0.09093881 -0.58670324 -0.013191092 -0.07874574 0.08568074
-0.09026968 0.062349938 -0.14160404 -0.090502225 0.0066617196 -0.05025981 -0.034186546 0.056990225
0.0074850875 0.057544444 0.033552345 0.088224046 0.09607265 -0.072797194 -0.058887 -0.13915887
0.014396623 -0.070916876 -0.14119378 0.18508382 -0.0058720014 -0.305703 0.15935518 -0.18037912
0.10528022 -0.26145077 -0.06446456 0.1022928 -0.083754346 0.009206895 -0.14916907 0.045963477
0.3907345 0.06938936 -0.06447053 0.061529733 0.09419662 -0.09252134 -0.010744673 -0.09501536
-0.07769331 -0.101134375 0.06042217 -0.19104946 -0.019102912 0.26513678 -0.3374355 0.4688637
0.10711227 -0.41605425 0.097799726 -0.006534523 -0.0668279 -0.05945878 0.15086603 -0.10023561
-0.04802814 0.032226916 -0.22570823 -0.10538347 -0.34557143 0.117809646 0.09287034 -0.048950557
-0.3293704 -0.14683186 -0.065547675 -0.029568763 -0.031743698 -0.016120309 0.0790073 -0.15084898
00000000: fa35 10be 1108 bcbb 4bfb 083d 3ce3 383d
00000010: 164c 5ebe cf6d f4bd 1add 91bb ca30 0ebd
00000020: 4126 6bbd 28a5 413e 8c07 34bd 13a9 c6bd
00000030: e83f 75be 41e2 043d e7ec 453c 836a 5bbd
00000040: 2581 71bd f17c 773d 2150 d7be a3f6 06bd
00000050: 1ace f7bd 106a 87bd 5735 cb3d 9ed5 9dbd
00000060: 8b9a 573d 6ac4 2abd e1af 98bc e90a 8c3d
00000070: 9951 78bd 43ba cb3c f480 39bf 90f2 4ebd
00000080: 45e2 2cbd 5441 473e a441 3fbe 9cf1 75bc
00000090: f06c 47bc 87f4 80bd d474 aabe 5f00 3cbe
000000a0: 07b3 383c 9b89 b8be e200 8fbe a2cd b3bd
000000b0: a883 23be a0bc aebe b754 e93d 2d8c 4bbd
000000c0: bd47 a4be 3eeb 0d3e 2830 4cbe 592e 233d
000000d0: 6c6e 19bf e075 b93d 381e 493d 78d0 97bd
000000e0: f6c0 fcbd 789c 42bd 0fc9 b4bc bdf2 acbd
000000f0: 03df 14bd 5318 a0bd 2dde 783d 9414 8f3d
00000100: 13c7 a7bd 2428 253d fdb7 7dbe 126b 713d
00000110: 82ee d93d 1fee 093d 4a3e 0bbe 97dc ee3d
00000120: 4cb4 bb3d ea9a e43b 25f5 25be 9768 c93d
00000130: 49c8 083d cb57 183e a042 9f3d 62ba a4be
00000140: 5d66 17be ff32 d3bc f555 1f3d 6707 603d
00000150: 8135 dabd d8a7 4a3d 5539 e0bd 1115 b7bd
00000160: 4a6b 87bc 4384 9abd 1a7f 143d acde e53b
00000170: b723 063e 6918 b3bb 18f2 36bd fcc9 59bc
00000180: 5fc8 003d d521 b8bd b2f0 613d 286a 11bd
00000190: 6fdf f53c 7356 6ebe bda8 c9be 2eb2 e73b
000001a0: ffc1 f93b c58e 5c3d 3047 4e3d e3bf a2bc
000001b0: a7b5 79bd 70ad d0bd 7b51 aa3c 4eca 00be
000001c0: 6d5f 03be fb60 333e 07f0 97be d227 f7bc
000001d0: f6a9 e43c 1ef5 ac3d d633 dfbc 6c13 d73c
000001e0: 6268 81be 43f3 8fbd 9530 0cbc b093 d13d
000001f0: 8587 a63d f793 59bd 182e f63d 7b8a 2ebe
00000200: 777e 57be ae6d dfbc 7e0c 1d3c 85a3 333d
00000210: 76fe eebe 841c 63bc 5423 46bc 7c4c e0bd
00000220: 70fe d23d 6703 9e3d c75b c23b e7be d6bc
00000230: 8e79 7ebe 57b0 03bd d2e1 cd3e f4fe 313d
00000240: 5973 c0bd 342b 02be 0de7 e8be b7c7 b03c
00000250: 45a5 c6bc 3f5e fbbb 3ecf bd3d 18c3 11be
00000260: 31b0 a53d 7857 a5bd 939f 983d 5107 cd3d
00000270: 9d55 f23c 85ed 55bd 333f 2fbf 6b87 aebd
00000280: 8aa4 c73c f51e 1a3e 77be 63bd acde 25bc
00000290: 48d8 9b3d 5d21 623d b3a7 56be 1245 67be
000002a0: 4e4c 74be dc9f 91be f2e4 87be 5da9 a1bc
000002b0: ddc4 d63d cf6e 3cbe 6417 093e f6e4 0bbe
000002c0: 91c2 99be 11bb bd3d cb18 77be 203e babd
000002d0: 2f32 16bf 731f 58bc 7245 a1bd 6279 af3d
000002e0: 4fdf b8bd a662 7f3d a600 11be 3b59 b9bd
000002f0: 8e4a da3b 3bdd 4dbd 3107 0cbd 956e 693d
00000300: 7745 f53b b9b3 6b3d 2f6e 093d cfae b43d
00000310: bdc1 c43d b216 95bd 7f33 71bd aa7f 0ebe
00000320: d0df 6b3c de3c 91bd 1a95 10be 9d86 3d3e
00000330: eb69 c0bb 1b85 9cbe 012e 233e 4eb5 38be
00000340: 289d d73d e0dc 85be ff05 84bd e37e d13d
00000350: 6687 abbd 84d8 163c c7bf 18be 3344 3c3d
00000360: 5a0e c83e 021c 8e3d 2009 84bd 9a06 7c3d
00000370: 28ea c03d d47b bdbd 6d0a 30bc 6a97 c2bd
00000380: ac1d 9fbd 8a1f cfbd 3d7d 773d 78a2 43be
00000390: b67d 9cbc 02c0 873e 59c4 acbe e70e f03e
000003a0: ae5d db3d 1005 d5be 394b c83d 8d1f d6bb
000003b0: 11dd 88bd 0d8b 73bd a07c 1a3e 5448 cdbd
000003c0: 28b9 44bd 5f00 043d 0f20 67be 4ad3 d7bd
000003d0: bdee b0be 2f46 f13d ce32 be3d 6180 48bd
000003e0: 3da3 a8be 175b 16be dc3d 86bd 313a f2bc
000003f0: ae05 02bd bd0e 84bc 94ce a13d 2878 1abe

sequential_45/dense_91/BiasAdd/ReadVariableOp f4 [4]
0.031648237 0.34654242 0.0572137 -0.29978812
00000000: 95a1 013d 026e b13e ea58 6a3d d47d 99be

sequential_45/dense_90/BiasAdd/ReadVariableOp f4 [128]
0.017690238 -0.027825635 0.0014681943 -0.027842836 -0.03905109 -0.22226088 -0.28318864 -0.032439858
-0.048530757 0.07914336 -0.0365488 0.0010839462 0.06967387 -0.0041971523 -0.043828305 0.008364342
0.0045243837 -0.10709746 -0.00030603274 -0.04845661 -0.12981027 0.024938196 -0.12559468 0.07600369
-0.034871012 -0.019951807 0.100914724 -0.04444109 -0.02016551 -0.024817612 -0.029702323 -0.04758437
-0.038987473 0.047301427 -0.029036244 0.033387236 0.11073906 -0.026697509 -0.00039028734 0.050885484
-0.02954329 -0.19110467 0.019414611 -0.2532405 0.10516964 -0.2376929 0.015351565 -0.048539
0.007227757 -0.045000315 -0.14039843 0.102645844 -0.032405026 -0.0474067 0.011539263 0.09191406
-0.018894034 -0.028482635 -0.008962309 0.0452289 -0.04762342 -0.100484766 -0.081826724 0.024370015
-0.21691208 0.062763005 -0.24190438 -0.013378164 0.023699356 0.018457083 0.025165172 -0.062255245
0.038718194 0.029386686 -0.07133505 -0.002031184 0.05695882 0.026042633 0.096726246 0.12771243
0.032518853 0.04556922 -0.11796606 -0.034283806 -0.06633116 -0.0071087643 -0.17378487 0.11844919
-0.06528556 -0.020854784 -0.094058946 -0.0831536 0.04001602 0.11919569 -0.10294183 -0.17890568
0.07980818 -0.053934556 0.030511018 -0.07954449 0.06761488 -0.051151004 -0.00495986 0.01677212
-0.015221041 0.040987737 0.012798443 -0.01148705 0.008645639 -0.043629307 0.028711885 -0.083431385
-0.04149657 0.02833868 -0.028282644 -0.06898381 0.11629553 -0.01967689 -0.02945591 0.062974915
-0.11003451 -0.05056605 0.036082815 -0.036097005 -0.098491274 0.006454685 -0.02701236 -0.016178861
00000000: 1eeb 903c 96f2 e3bc 6d70 c03a a916 e4bc
00000010: 09f4 1fbd 5b98 63be 1afe 90be a8df 04bd
00000020: 30c8 46bd ea15 a23d 32b4 15bd 3313 8e3a
00000030: 2db1 8e3d 4488 89bb 4f85 33bd 980a 093c
00000040: 4841 943b ea55 dbbd 0573 a0b9 707a 46bd
00000050: fcec 04be 304b cc3c e49b 00be d3a7 9b3d
00000060: e8d4 0ebd f971 a3bc 61ac ce3d dc07 36bd
00000070: 2432 a5bc 4e4e cbbc 4952 f3bc d4e7 42bd
00000080: 54b1 1fbd 24bf 413d 6bdd edbc 0ec1 083d
00000090: 29cb e23d bcb4 dabc 7b9f ccb9 4c6d 503d
000000a0: c504 f2bc f1b0 43be 640b 9f3c bda8 81be
000000b0: 2e63 d73d c465 73be 2185 7b3c d5d0 46bd
000000c0: d2d6 ec3b 4052 38bd 9bc4 0fbe fc37 d23d
000000d0: 22bb 04bd 872d 42bd 2d0f 3d3c 703d bc3d
000000e0: a9c7 9abc 6a54 e9bc a6d6 12bc f041 393d
000000f0: c610 43bd f5ca cdbd c594 a7bd a0a3 c73c
00000100: 331e 5ebe e489 803d c8b5 77be 1630 5bbc
00000110: 2725 c23c 4f33 973c 3127 ce3c 5bff 7ebd
00000120: f896 1e3d 59bc f03c 1c18 92bd 9d1d 05bb
00000130: a74d 693d 5c57 d53c 6918 c63d 0cc7 023e
00000140: 7d32 053d caa6 3a3d 3198 f1bd 2d6d 0cbd
00000150: a2d8 87bd a3f0 e8bb a9f4 31be 7d95 f23d
00000160: 70b4 85bd a7d7 aabc faa1 c0bd 6f4c aabd
00000170: d7e7 233d df1c f43d 2bd3 d2bd 0d33 37be
00000180: 7972 a33d 7bea 5cbd 3ef2 f93c 39e8 a2bd
00000190: ac79 8a3d b783 51bd 5286 a2bb af65 893c
000001a0: ac61 79bc c2e2 273d 90b0 513c 2e34 3cbc
000001b0: 70a6 0d3c a5b4 32bd 3035 eb3c 13de aabd
000001c0: 4ff8 29bd 8526 e83c 01b1 e7bc 6247 8dbd
000001d0: 5a2c ee3d 6e31 a1bc 854d f1bc fef8 803d
000001e0: c659 e1bd 591e 4fbd 93cb 133d 74da 13bd
000001f0: cbb5 c9bd d281 d33b 0649 ddbc 8889 84bc

sequential_45/dense_90/MatMul f4 [128, 1408]
0.08334382 -0.13377844 0.09328968 0.111116864 0.018191144 -0.05506235 0.11361921 0.014414097
0.21744065 -0.12944391 -0.019236356 0.063386515 0.1190481 -0.0074119065 0.030573022 -0.03505379
-0.29952845 -0.81440705 0.112527 -0.04879145 0.12791379 0.20054798 0.026309947 0.10514792
0.20932472 0.01485896 0.093962744 0.06672711 -0.017191758 -0.0772317 -0.12206172 -0.014178276
0.06660916 -0.09177444 0.12698185 0.07043984 -0.0728298 -0.009229179 0.035473026 -0.29180738
-0.0018287192 0.049343035 -0.0660421 -0.007472189 -0.045276195 0.07719262 0.013417562 0.0064026737
0.44406277 0.13119686 0.12006734 0.047566194 -0.057770222 0.11009039 0.27053577 0.011183727
0.567676 0.028547788 0.22562914 -0.063831896 0.07429241 0.040125173 0.060862187 0.0838691
0.11530124 0.060531322 -0.01755296 -0.07257927 -0.09581669 0.03931413 0.0552342 -0.22641982
0.014184069 0.17427269 0.13588917 -0.05086559 0.018670224 0.10106036 0.45409432 0.14754137
-0.044798564 0.057624906 0.08441177 0.02332495 -0.09881608 0.07727745 -0.05101749 -0.021366553
-0.24182114 0.03199332 -0.04921222 -0.12995948 -0.0088182725 0.02192304 -0.28233263 0.016640928
0.17916904 -0.062244628 -0.7586919 -0.0012251652 0.021662218 0.032224648 0.12712622 -0.54196465
0.35578796 0.054544114 0.16935436 -0.010981834 -0.049336005 0.053155933 -0.04886189 -0.0055804914
-0.02786382 -0.047293607 0.038278285 0.17328043 0.01457462 -0.0302514 -0.0291893 -0.041507363
0.024875093 -0.06532962 -0.06151045 0.028137688 0.07271412 0.13988793 -0.44819933 -0.030513035
0.10628436 -0.069479756 0.080876686 0.013910278 -0.01850044 -0.040860828 0.18322216 -0.0015068452
0.13360451 -0.2415585 -0.0935527 0.12191937 0.11930327 -0.049984 -0.022765623 -0.03568033
-0.14731275 -0.58129126 0.047440052 -0.064628035 0.1484689 0.2347287 0.05021306 0.06914609
0.23621176 -0.005429049 0.025894282 0.06286541 0.05791539 -0.0026599544 -0.13989517 -0.01716429
0.19454947 -0.0007232852 0.080272794 0.10363534 -0.08218609 -0.04439328 -0.025247723 -0.3295324
-0.053692583 0.036574185 -0.02823478 -0.030951431 0.016377397 0.12525976 0.03469203 -0.018958075
0.38270304 0.20536615 0.117670454 -0.0014805613 -0.052181337 0.090905055 0.22736731 -0.0035405566
0.38709337 -0.015525647 0.21072887 -0.096900865 0.09466871 0.05269308 0.011708656 0.13878183
0.12795478 0.012912842 0.028369104 -0.052394107 -0.109412596 0.10938475 0.014025914 -0.27923775
0.09446475 0.25792626 0.056118485 -0.076302044 0.03784186 0.085005015 0.47142434 0.13455702
-0.012340584 0.07529466 -0.014281878 0.034067385 -0.14448653 -0.017527508 0.016391912 -0.05810411
-0.1346236 0.03784566 -0.05735444 -0.07944938 0.015500403 -0.04630953 -0.11908474 0.08975219
0.32051566 0.016856456 -0.41065872 -0.024803769 -0.052574895 0.08323393 0.15099296 -0.30579334
0.32314888 0.02437952 0.173106 0.039890334 -0.0424699 0.06818823 -0.017746143 0.061147388
0.02603124 -0.014365803 0.05983532 0.12771781 -0.02669299 0.015317921 -0.020016948 -0.054701574
-0.016038971 0.07671436 -0.017184766 0.022569757 0.16878116 0.0021397742 -0.32682607 0.03490546
00000000: 2ab0 aa3d 37fd 08be a90e bf3d 3d91 e33d
00000010: 9805 953c 0f89 61bd 30b1 e83d 1b29 6c3c
00000020: c3a8 5e3e f28c 04be 9095 9dbc cad0 813d
00000030: 7ecf f33d 94df f2bb 4674 fa3c 9094 0fbd
00000040: cb5b 99be fb7c 50bf 8e74 e63d 8bd9 47bd
00000050: d5fb 023e 735c 4d3e f587 d73c cb57 d73d
00000060: 3859 563e ff72 733c 8a6f c03d 39a8 883d
00000070: bbd5 8cbc a72b 9ebd 7ffb f9bd 004c 68bc
00000080: 626a 883d 3df4 bbbd 8807 023e c342 903d
00000090: ca27 95bd fb35 17bc 2a4c 113d c767 95be
000000a0: a2b1 efba ec1b 4a3d 1541 87bd 44d9 f4bb
000000b0: 8873 39bd 2a17 9e3d 55d5 5b3c 85cd d13b
000000c0: 325c e33e 7858 063e dee5 f53d c5d4 423d
000000d0: 78a0 6cbd 1277 e13d aa83 8a3e f33b 373c
000000e0: 3753 113f 0ddd e93c 530b 673e 4cba 82bd
000000f0: 9e26 983d 4b5a 243d a14a 793d 90c3 ab3d
00000100: 0e23 ec3d b1ef 773d 3acb 8fbc 71a4 94bd
00000110: 8a3b c4bd da07 213d 423d 623d 99da 67be
00000120: 4c64 683c 8a74 323e 8826 0b3e 7058 50bd
00000130: 4cf2 983c bcf8 ce3d 0d7f e83e 1615 173e
00000140: b37e 37bd 1808 6c3d 14e0 ac3d f713 bf3c
00000150: 1660 cabd a443 9e3d b7f7 50bd e908 afbc
00000160: f69f 77be 6d0b 033d c192 49bd 1914 05be
00000170: 847a 10bc f297 b33c e78d 90be 8e52 883c
00000180: 1778 373e 39f4 7ebd a239 42bf b995 a0ba
00000190: f774 b13c fefd 033d 602d 023e 32be 0abf
000001a0: d729 b63e a669 5f3d 3b6b 2d3e 26ed 33bc
000001b0: 8d14 4abd 09ba 593d 6823 48bd 8edc b6bb
000001c0: aa42 e4bc f1b6 41bd b1c9 1c3d 6d70 313e
000001d0: 63ca 6e3c c9d1 f7bc 661e efbc a003 2abd
000001e0: dac6 cb3c 89cb 85bd 62f2 7bbd 0281 e63c
000001f0: 24eb 943d c83e 0f3e 627a e5be 79f6 f9bc
00000200: 9dab d93d 674b 8ebd ada2 a53d efe7 633c
00000210: 3c8e 97bc af5d 27bd 979e 3b3e 5681 c5ba
00000220: 9fcf 083e 1d5b 77be 8f98 bfbd ddb0 f93d
00000230: 4655 f43d 06bc 4cbd f97e babc 8a25 12bd
00000240: 27d9 16be 81cf 14bf 8050 423d b45b 84bd
00000250: 3b08 183e b85c 703e 36ac 4d3d 779c 8d3d
00000260: 7fe1 713e 2ae6 b1bb 3f20 d43c 94bf 803d
00000270: b038 6d3d a152 2ebb ae40 0fbe 209c 8cbc
00000280: fa37 473e d99a 3dba 1066 a43d c43e d43d
00000290: 2e51 a8bd bad5 35bd 50d4 cebc 79b8 a8be
000002a0: c1ec 5bbd d0ce 153d a04c e7bc db8d fdbc
000002b0: e429 863c 1844 003e 3b19 0e3d f74d 9bbc
000002c0: a7f1 c33e 814b 523e 35fd f03d 650f c2ba
000002d0: 19bc 55bd 6e2c ba3d fad2 683e af08 68bb
000002e0: 1a31 c63e 495f 7ebc 4fc9 573e f673 c6bd
000002f0: abe1 c13d b3d4 573d aad5 3f3c d31c 0e3e
00000300: 9406 033e 6390 533c 5366 e83c 349b 56bd
00000310: b613 e0bd 1d05 e03d f2cc 653c 40f8 8ebe
00000320: bc76 c13d e90e 843e 7fdc 653d 3f44 9cbd
00000330: 1100 1b3d 1c17 ae3d 885e f13e 51c9 093e
00000340: 2930 4abc 1634 9a3d 8afe 69bc 3e8a 0b3d
00000350: 47f4 13be d995 8fbc 5548 863c 93fe 6dbd
00000360: c5da 09be 0d04 1b3d 7dec 6abd 5bb6 a2bd
00000370: 67f5 7d3c 10af 3dbd b3e2 f3bd ffcf b73d
00000380: a11a a43e 8d16 8a3c dc41 d2be 4631 cbbc
00000390: c658 57bd 8d76 aa3d e69d 1a3e f290 9cbe
000003a0: c573 a53e 8fb7 c73c b342 313e 0c64 233d
000003b0: ebf4 2dbd 45a6 8b3d 5c60 91bc af75 7a3d
000003c0: 783f d53c 8c5e 6bbc e115 753d 75c8 023e
000003d0: 42ab dabc 04f8 7a3c 95fa a3bc c20e 60bd
000003e0: 2964 83bc 6b1c 9d3d 11c7 8cbc 36e4 b83c
000003f0: f8d4 2c3e 743b 0c3b bf55 a7be 07f9 0e3d

sequential_45/dense_91/MatMul f4 [4, 128]
-0.010902699 0.0050530783 0.29443964 0.1425588 -0.09397786 0.2075889 -0.38763267 0.14014009
-0.6209981 -0.97791487 -0.10865141 0.65855056 -0.54741937 0.0931634 -0.52525157 -0.0051850695
0.7222437 0.25639233 0.17409073 0.19438852 0.16520739 -0.7553847 0.25047895 -0.22299172
0.051110964 0.14117903 -0.8254452 0.39799076 0.37718454 0.051861815 -0.009854349 -0.095876396
-0.02264632 -0.4682572 0.13863778 -0.6841043 -0.9094927 0.11161741 0.065409385 -1.138042
0.08740024 0.23892976 -1.1995077 0.24233258 -0.82076377 -0.8781304 0.44438156 -0.38675252
0.20780729 -0.66863024 0.23802653 0.39474678 0.2277821 -0.17186795 0.17381825 -0.845514
0.11342868 0.11113751 -0.5918324 0.15324995 0.24068075 0.3166872 0.18591474 -0.6848746
-0.77083457 -0.46200845 0.29852828 -0.7261358 0.25426432 -0.7721594 -0.6750083 0.11583417
0.20684624 0.7067962 0.29147205 0.09277307 -0.68207115 -0.93318665 -0.96550643 -0.8168582
-0.82193434 -0.0450609 0.46265295 -0.11714477 0.32270986 -0.38861626 -0.64217055 -0.90685076
0.60775656 0.2642242 0.0640941 0.368535 -1.3705084 -0.9846413 -0.93310267 0.13466123
-0.5878888 0.23748372 -0.52859414 0.37008557 -0.7811781 -0.38528073 0.82249314 0.31060708
0.12941787 -1.3865503 0.37885603 -0.021374127 0.22675265 -0.07570832 -0.6306958 0.079876095
0.25878283 -0.68821025 0.08205123 -0.4567429 -0.998193 0.1126214 0.38115886 -0.7563054
-0.8669026 -0.63259494 -0.9632516 -0.112251215 -0.44386125 0.14516115 0.09114381 0.1182104
-0.7036876 0.17328745 0.012673972 0.0067657316 0.061992675 -1.378291 0.81498224 0.13938843
-1.0594077 -0.1227412 -0.016395552 -0.3483197 0.024854923 0.10347495 -0.9407786 -0.67102075
-0.21830317 -1.1414149 0.16950163 -0.17116272 -1.0447412 0.15313396 -0.734994 -0.24915445
-0.11420504 -0.16431314 -0.17109151 -1.252887 0.16289702 0.18124734 0.14430963 0.037989408
0.14913203 0.17878366 0.122814745 0.14221463 0.12562467 0.1283371 -0.6310584 0.021983689
0.16399726 -1.2299286 0.06535758 -0.9989062 0.012549555 0.5202233 -1.3287727 0.25379112
0.21758342 -0.47380972 -0.693303 -0.65988 -0.65361625 0.04606509 -0.9998636 -0.1337522
0.08681587 0.12038555 -0.07212313 0.39896575 0.35689574 -1.0246296 -1.2726997 -0.5096966
0.48040533 0.26448575 -0.9894238 0.18783036 0.39992672 0.044942845 0.2064626 -0.67554194
0.21424195 -0.20473944 -0.61690664 0.096030675 0.20600857 -0.5186388 0.07524794 -0.08550757
0.42423713 0.14926003 -1.3122199 0.035522062 0.119308725 -0.71597564 -0.1930303 -0.024970092
-0.057929195 -1.3875535 0.4695702 0.52236396 -0.32410595 -0.172364 -0.16742519 -1.1604315
-0.15605274 0.16600768 0.297533 0.04688096 -0.7735323 0.24017544 -0.24392858 0.32688054
0.2566726 -0.12341439 -1.1722785 -0.012935431 -0.8178836 0.607106 0.19190888 0.0863198
0.43341094 0.09398543 -0.058815695 0.27735257 0.008009838 0.10352409 0.36933336 -0.3916888
0.4468675 0.35197797 -0.57427603 -0.027449977 0.28933468 0.1267251 0.09928143 -0.14426573
00000000: 3ca1 32bc 4b94 a53b cbc0 963e effa 113e
00000010: 7777 c0bd 2f92 543e ca77 c6be e280 0f3e
00000020: bbf9 1ebf a158 7abf a184 debd c596 283f
00000030: ad23 0cbf 74cc be3d e376 06bf 84e7 a9bb
00000040: f7e4 383f db45 833e d744 323e c90d 473e
00000050: 202c 293e e460 41bf c73e 803e f157 64be
00000060: bb59 513d 3c91 103e 6050 53bf 72c5 cb3e
00000070: 551e c13e 0e6d 543d 2374 21bc d85a c4bd
00000080: c684 b9bc 68bf efbe 10f7 0d3e 7621 2fbf
00000090: 83d4 68bf ab97 e43d 5bf5 853d 5cab 91bf
000000a0: e6fe b23d 01aa 743e 7889 99bf 0826 783e
000000b0: 931d 52bf 27cd 60bf fb85 e33e 6d04 c6be
000000c0: 6fcb 543e 5a2b 2bbf 3abd 733e 401c ca3e
000000d0: b63f 693e 27fe 2fbe 69fd 313e 9b73 58bf
000000e0: 4c4d e83d 109c e33d 5482 17bf 8eed 1c3e
000000f0: 0475 763e d324 a23e 6f60 3e3e f153 2fbf
00000100: 6a55 45bf 5f8c ecbe b3d8 983e 09e4 39bf
00000110: ef2e 823e 3dac 45bf 58cd 2cbf 773a ed3d
00000120: 80cf 533e 99f0 343f d33b 953e cfff bd3d
00000130: 379c 2ebf 52e5 6ebf 6e2b 77bf 9e1d 51bf
00000140: 4a6a 52bf c791 38bd d9e0 ec3e 99e9 efbd
00000150: 3a3a a53e b6f8 c6be 4a65 24bf 5f27 68bf
00000160: ef95 1b3f 6548 873e c443 833d 9fb0 bc3e
00000170: d26c afbf 7411 7cbf d1df 6ebf a2e4 093e
00000180: e17f 16bf ef2e 733e f251 07bf db7b bd3e
00000190: 4afb 47bf 8443 c5be e98e 523f e407 9f3e
000001a0: 1e86 043e 7b7a b1bf 6bf9 c13e cb18 afbc
000001b0: d931 683e f70c 9bbd 4875 21bf 1496 a33d
000001c0: 2f7f 843e 8c2e 30bf 7a0a a83d 35da e9be
000001d0: 9489 7fbf 0ca6 e63d 4127 c33e 3b9d 41bf
000001e0: 54ed 5dbf bef1 21bf a897 76bf f7e3 e5bd
000001f0: c841 e3be 20a5 143e 9ba9 ba3d 4b18 f23d
00000200: df24 34bf 4472 313e 7ea6 4f3c 12b3 dd3b
00000210: 08ec 7d3d d76b b0bf ada2 503f d7bb 0e3e
00000220: ac9a 87bf bd5f fbbd f74f 86bc f656 b2be
00000230: 8d9c cb3c adea d33d ded6 70bf 04c8 2bbf
00000240: de8a 5fbe e219 92bf d691 2d3e 4845 2fbe
00000250: 14ba 85bf 26cf 1c3e 9128 3cbf 5822 7fbe
00000260: 55e4 e9bd b441 28be 9d32 2fbe 9a5e a0bf
00000270: 7ace 263e e798 393e e7c5 133e c89a 1b3d
00000280: 11b6 183e 1013 373e 4c86 fb3d b6a0 113e
00000290: c1a3 003e cd6a 033e 0b8d 21bf 2317 b43c
000002a0: e6ee 273e 4d6e 9dbf 32da 853d 51b8 7fbf
000002b0: a69c 4d3c 5b2d 053f 3915 aabf e9f0 813e
000002c0: 30ce 5e3e 3097 f2be 4e7c 31bf e5ed 28bf
000002d0: 6553 27bf bfae 3c3d 10f7 7fbf 56f6 08be
000002e0: 85cc b13d b38c f63d 4bb5 93bd 3d45 cc3e
000002f0: 0abb b63e 1027 83bf d3e7 a2bf 7a7b 02bf
00000300: b0f7 f53e ad6a 873e e14a 7dbf 9a56 403e
00000310: 32c3 cc3e fd15 383d ef6a 533e 51f0 2cbf
00000320: 3e62 5b3e 37a7 51be 98ed 1dbf bbab c43d
00000330: e9f3 523e 83c5 04bf 981b 9a3d 981e afbd
00000340: 9c35 d93e 9fd7 183e d2f6 a7bf 957f 113d
00000350: 2258 f43d 2e4a 37bf bca9 45be 148e ccbc
00000360: 2a47 6dbd 5a9b b1bf 816b f03e a5b9 053f
00000370: 37f1 a5be 3080 30be 8271 2bbe 0589 94bf
00000380: 4acc 1fbe ebfd 293e 3f56 983e 4006 403d
00000390: 3606 46bf 8df0 753e 6ac8 79be e35c a73e
000003a0: 976a 833e afc0 fcbd 390d 96bf 21ef 53bc
000003b0: d260 51bf 4c6b 1b3f c383 443e 6fc8 b03d
000003c0: 0ae8 dd3e 6f7b c03d bae8 70bd 2801 8e3e
000003d0: b23b 033c 7004 d43d 4319 bd3e 6f8b c8be
000003e0: d1cb e43e 7536 b43e c103 13bf c6de e0bc
000003f0: ad23 943e 3ac4 013e 1054 cb3d 65ba 13be
